cnn_model/weight/softmax_weights.npz (npz, 62984 bytes, 1 tensors)

theta f8 [10, 784]
0	0xbeee6f0fd89ad65d	-1.4511983653302236e-05
1	0x3ec35281ab79d01e	2.3033965950662027e-06
2	0xbed7c2960559dfae	-5.664849671675673e-06
3	0x3f055a643e149b58	4.072779098356652e-05
4	0xbef32b5be305e2ae	-1.828133662360131e-05
5	0x3ea6b6d0d23e3973	6.769336420174883e-07
6	0x3f057a426e72f52a	4.096522553130096e-05
7	0xbee517729f475cb7	-1.0057255146840545e-05
8	0x3ef1dd97f0f9ab4b	1.7037963571924023e-05
9	0xbee0866eba3e493c	-7.879794629937606e-06
10	0x3f02395da516ccf5	3.4759683909335865e-05
11	0x3ef3669b052c7ca8	1.850204746311744e-05
12	0x3ef5e2841c024f67	2.0870998696922475e-05
13	0xbef09300152de129	-1.5806407940273e-05
14	0xbecd67d8e4bcbf59	-3.505427036552751e-06
15	0x3ee2ab7b4ac0ee8c	8.902478235587521e-06
16	0x3eea927f3eefe310	1.2670638140464759e-05
17	0xbecad2f8bfeb5c12	-3.197682871696185e-06
18	0x3ef01575f7cfb5cb	1.533873681929479e-05
19	0x3f06d872b064f967	4.357433322120762e-05
20	0x3eb2324086655aee	1.084583823270857e-06
21	0x3ed1cf1282f9125d	4.245966962527866e-06
22	0x3ed57377624bb1f6	5.114326573557324e-06
23	0x3f02133c7ff63aec	3.4475597199370506e-05
24	0x3ef275ff4e908f92	1.76057118645014e-05
25	0x3eccdefd05f30a6a	3.441697159796161e-06
26	0xbeed3eb53db77512	-1.394508028956324e-05
27	0x3f04f9dc4b107092	4.000857860139805e-05
28	0xbeead1cf50ca6ab2	-1.2788567368906187e-05
29	0x3ea82de06e270503	7.205964858635032e-07
30	0x3ee93e20fc38ba8b	1.2036652953543024e-05
31	0xbee211486926ddc5	-8.615260672735912e-06
32	0x3ef6689e638678c1	2.1370570011940803e-05
33	0x3eaa6fe0a5e26105	7.878846408791647e-07
34	0xbee3feed8b5a4792	-9.534746236359256e-06
35	0xbeec3922765542ab	-1.3457861948980068e-05
36	0xbf12294c46a812a2	-6.927993823786308e-05
37	0xbf251f51c92a1c2b	-0.0001611506782703565
38	0xbf319b10ed199188	-0.0002686420749340658
39	0x3f353358b51ddfea	0.0003234950610173636
40	0x3f510c9b94721ff0	0.001040603574240958
41	0x3f38d200abc418c9	0.0003787280691231019
42	0xbf393981f9bda687	-0.00038489745360568327
43	0x3f23a831c689d9f2	0.000149971080890501
44	0x3f4e7c07a3125eca	0.0009303128519091094
45	0x3f347f171f7b79ff	0.0003127509548742912
46	0xbf2dac76189c4c1c	-0.00022639218905648538
47	0xbf2608fd2e11666b	-0.00016811457229231065
48	0xbf24a7c538deca69	-0.0001575878381437524
49	0xbf14bcac5e920e1f	-7.910539683746901e-05
50	0xbefa0e15e397723e	-2.484800481804467e-05
51	0xbeeaa9923d3c889a	-1.2713617173757807e-05
52	0x3eed8ff4239c2966	1.4096412189985776e-05
53	0x3ed249981fdb08cd	4.3600743972490795e-06
54	0x3ee887050df839b6	1.1695585668850032e-05
55	0x3ef2d1b933a2525e	1.7947418407065318e-05
56	0x3efabefe26852396	2.5507035759350984e-05
57	0x3ecfe436d090166c	3.801758456936299e-06
58	0xbeb37c1302a8bb9f	-1.161376540391902e-06
59	0x3f0925eae6d1f8c8	4.7966223839944445e-05
60	0xbeda69cd263aea70	-6.2974182559136655e-06
61	0xbf003b124dd76fb1	-3.0957695098726165e-05
62	0xbf3e108ee6a141b8	-0.00045875061789948544
63	0xbf43cb93b0ae7cee	-0.0006041022437449897
64	0xbf52283d2c97172d	-0.0011082265285593071
65	0xbf6509760c05c50c	-0.002567987976526914
66	0xbf6c41a637a56540	-0.0034492727692564673
67	0xbf7033420834083b	-0.003955133378669424
68	0xbf74f07806199b18	-0.00511214145954033
69	0xbf7b729cb6f52f1d	-0.006701099554742543
70	0xbf843240ad025e9b	-0.009861474304030884
71	0xbf88ab2205d1d28a	-0.012045160105324432
72	0xbf88c7b734fad4ec	-0.012099677376094374
73	0xbf85f4532280a3ee	-0.010719918718750745
74	0xbf824dabf90d9121	-0.0089372096424048
75	0xbf7e3a45630f6730	-0.0073797903468973275
76	0xbf7633da77874f14	-0.005420544992791116
77	0xbf69d01356e60d5d	-0.003150975963934917
78	0xbf5ad2f24a62231b	-0.0016372076147794293
79	0xbf46e1497eda7a5c	-0.0006982430329179434
80	0xbf2b7af2f4689ba7	-0.00020965781932710573
81	0xbef108de65ddc59d	-1.6245502016903208e-05
82	0xbf03f13efea5437d	-3.8037047334633034e-05
83	0x3ed39f096ba12900	4.678067563610453e-06
84	0x3ef2f0ef4a60d620	1.806368950259794e-05
85	0xbf061cea083d6ed6	-4.2177097411692156e-05
86	0x3ede26f891b6714e	7.188851920327954e-06
87	0x3f1638e04a7389f1	8.477086031492117e-05
88	0xbf307e0abe067b6c	-0.0002516533113751582
89	0xbf5d79f162a9fe45	-0.0017990929869994437
90	0xbf68d5e0198ea308	-0.0030316712331636166
91	0xbf728433ac32cf3f	-0.004520608755388455
92	0xbf74943f2eec9f3e	-0.005024191674955434
93	0xbf8582f090472c77	-0.010503653910651984
94	0xbf8aed204d6fa7b9	-0.013147594798244332
95	0xbf8b6163a117d40e	-0.01336934886328758
96	0xbf91e361fecd9db1	-0.017468959023430212
97	0xbf928ed2d327baed	-0.018122953546419508
98	0xbf97ffe68d1831c1	-0.023437120782590307
99	0xbf9a7ea41862214f	-0.025873722065200607
100	0xbf9ba4c582dbe1df	-0.026995740997309055
101	0xbf9fe7b73f1f2f7b	-0.031157363155031242
102	0xbfa31f816e572972	-0.037349743575378805
103	0xbfa187a3deab3c68	-0.03423797696233849
104	0xbf9b452be68315ff	-0.02663105577882696
105	0xbf943964b6fe995e	-0.019750188511943427
106	0xbf89da96952a27d5	-0.012623955180305938
107	0xbf783a2f0dca347f	-0.005914863399664515
108	0xbf62d1c888f7446e	-0.0022972981166522943
109	0xbf421cd5d423053f	-0.0005527538380862075
110	0xbf20f7bbf326d1a1	-0.0001294533663675048
111	0xbef396c67bcbf8cd	-1.868149387273463e-05
112	0x3ee825284752ae48	1.1513302732821894e-05
113	0xbee978d88d776d28	-1.2146022000550526e-05
114	0xbef297bbaa42dfb9	-1.7731387416758152e-05
115	0xbef0220b311a7492	-1.538561179491701e-05
116	0xbf496c2e12aa5687	-0.0007758355107678341
117	0xbf72d4d0a31bb3f4	-0.004597487438997117
118	0xbf7ead39acbdb753	-0.007489419261998825
119	0xbf85233ca8162904	-0.010321115378947095
120	0xbf8daefc03e11094	-0.014493912571318192
121	0xbf92e071c397aaea	-0.01843431240369401
122	0xbf977ab4f0701822	-0.022929026770747048
123	0xbf94a8a2d5ddcf31	-0.020174545577403783
124	0xbf9130fe22f35915	-0.016788454898084632
125	0xbf59f1de4865e6b1	-0.0015835448008076176
126	0x3f6c5d2042850842	0.0034623746943518727
127	0x3f8cca500c5e9b35	0.014057755830277333
128	0xbf435afa5e9d5f4c	-0.0005906794078595983
129	0xbf7a859bf5255ce5	-0.006475075921421357
130	0xbf90f8f4b59c5223	-0.01657469137633617
131	0xbf945846452eb3b7	-0.01986799046760598
132	0xbf94408818ad956b	-0.01977741861937458
133	0xbf9591c4b3033382	-0.021063874651008792
134	0xbf92a0ac1c0ecb9e	-0.018191041195403927
135	0xbf8f1141e83ddb11	-0.01516963472361746
136	0xbf849ef9facacc82	-0.010068848577566184
137	0xbf68874c7663cc71	-0.0029942029387882087
138	0xbf3e06f3d0c450e8	-0.0004581780674624129
139	0xbef4bf2faaedf8a1	-1.9785710431368388e-05
140	0xbeeff5d293311ce3	-1.5239832100401345e-05
141	0x3ed47041fe0afac8	4.872919789177233e-06
142	0xbf0d8c70f551436d	-5.635947915350642e-05
143	0xbf2b968b7f7cb4b0	-0.00021048024040607382
144	0xbf66773c648b73ca	-0.00274240298709436
145	0xbf84386b386ab3a1	-0.009873235377506452
146	0xbf8d09fd2f37d027	-0.01417920875881158
147	0xbf96c79c7a18cb02	-0.022245831443977522
148	0xbf9e1fe2db3ae933	-0.02941851103853672
149	0xbfa0ce8a75268020	-0.03282578163202765
150	0xbf97fb5942b6bdee	-0.023419756600274448
151	0xbf8864ed5ce04b1d	-0.011911253353934332
152	0x3f7c02e18174edad	0.006838684922793642
153	0x3fa84de887aa0134	0.04746939331107783
154	0x3fb1cdf2f310793d	0.06954878267467719
155	0x3fb4b4dcc1bdfa89	0.08088474016219939
156	0x3fb4576786069c17	0.07945868513216713
157	0x3fb3818b973854d5	0.07619545404334656
158	0x3faa8ccf8a5f701b	0.0518555504238238
159	0x3f980eac8606e7ee	0.02349347656284089
160	0x3f3d90a4f0b21825	0.000451126354797162
161	0xbf74e879d3a0eb97	-0.0051045187811337355
162	0xbf8f865860713e7b	-0.015392961924731488
163	0xbf9c01c5adac662e	-0.027350510335145177
164	0xbf9752dc7cddd28a	-0.02277702819943043
165	0xbf843c6b129f63b0	-0.009880863672082046
166	0xbf64404c5e52f611	-0.0024720660754542563
167	0xbf336527e35294af	-0.0002959463484536002
168	0x3eb2f4316d87ad5e	1.129739237377653e-06
169	0x3ecb90f8c02491ae	3.2861585178725356e-06
170	0xbf21369e49557e0c	-0.00013132745940945577
171	0xbf4b8bcc49121939	-0.0008406398284399936
172	0xbf7539d1ef4dbe43	-0.005182094629034464
173	0xbf87cc97dc7e49d7	-0.011620699325963919
174	0xbf947a7ffb5e5b52	-0.019998550145454992
175	0xbf9e2063b87dea25	-0.02942043126629747
176	0xbfa3ccf3f0c61c85	-0.038673041478483085
177	0xbfa4d453fd7a9486	-0.04068243474220261
178	0xbf947a82392403cb	-0.019998583543386943
179	0xbf5e3bc2809fc9c7	-0.0018453025281784817
180	0x3f942634f42219ca	0.019676997566898703
181	0x3fa9944c73a43bc7	0.049959553829573226
182	0x3fb01943490dfc88	0.06288548024712004
183	0x3fb3c4b817928a5d	0.07722044539927127
184	0x3fb974b6757505bf	0.09943714492421572
185	0x3fbbbd5987d2bdda	0.10835799757000278
186	0x3fb7520c96758b20	0.091095720990364
187	0x3fad6f117727c3da	0.05748800830395569
188	0x3fa0eb3d02ea18e3	0.03304472599579513
189	0x3f9fb5af75d55372	0.030966512267088082
190	0x3f8e4d3f3e9b8370	0.014795774553421487
191	0xbf9734a4cdd9bc31	-0.022661757530326013
192	0xbfa409dc56532145	-0.03913773111122735
193	0xbf971253dc9a4bac	-0.022530851687928496
194	0xbf7d9d62cebaab1d	-0.007230173079430438
195	0xbf52fa4eb74504e0	-0.001158310767167152
196	0x3ee73b8fb18c2a8a	1.107819621061947e-05
197	0xbf0ebf41c06fcb14	-5.864543350488617e-05
198	0xbf411fbf78479c2b	-0.0005225834761944983
199	0xbf5aeb778294cdce	-0.0016430537310271223
200	0xbf809480d7cfde97	-0.00809574755292823
201	0xbf8e31c8774e5c85	-0.014743391171391682
202	0xbf9887b68a30e72c	-0.02395520418597312
203	0xbfa180d7f35e9da1	-0.034186123331262815
204	0xbfa5bdc313a5b346	-0.04246339430651473
205	0xbf96fad9cc63ca2a	-0.022441294765437693
206	0xbf8021284e186dde	-0.00787574280098274
207	0x3f8456d47a77027b	0.009931240069705574
208	0x3f972adc51095d10	0.02262443775756845
209	0x3fa1b6f27a5aa4cf	0.034598901210594606
210	0x3fa7e0a9635b5e6d	0.046635907534150124
211	0x3fb0b232e940f95a	0.06521909899399728
212	0x3fb7b41b9c726d0d	0.09259197778230917
213	0x3fbe3ac7c9c69764	0.11808441806951248
214	0x3fbba0b404fc97af	0.1079208862471137
215	0x3fb2a4bf8f283872	0.07282635922476446
216	0x3fa4b07eafa3a890	0.040409048977225415
217	0x3fa0b81303f16d59	0.032654375296909684
218	0x3fa03a6c52bb52c8	0.031695733164871565
219	0xbf3ca2128cba775c	-0.0004369063651469185
220	0xbfa3c06d7cc76a2c	-0.03857748172932349
221	0xbf9f74e1638b2f52	-0.030719300938286516
222	0xbf81bb1e47f98c15	-0.00865768105649604
223	0xbf3c55c9d25cead9	-0.00043235947883927883
224	0x3f3503c72b4c1e05	0.0003206597569236083
225	0xbf15d3b27a8188f7	-8.326317640830807e-05
226	0xbf46547f40121b2b	-0.0006814595545997273
227	0xbf68af89d1e16bd2	-0.003013390712152988
228	0xbf8a85d964bd55ab	-0.012950609576061497
229	0xbf95da51fe7da19b	-0.021340638311274068
230	0xbf9c3f2ff10cb532	-0.027584790313246184
231	0xbfa1825ff89916e8	-0.03419780645030618
232	0xbf9e751263140f23	-0.029743468568098962
233	0xbf8b710282a206d5	-0.013399142848587267
234	0x3f637ee0aa80a736	0.002379835892516359
235	0x3f82ad20c97ae611	0.00911927809589755
236	0x3f99d7f22ccf9661	0.02523783110145528
237	0x3fa0458cb91db3d9	0.03178062209813221
238	0x3fa9b047819b20a1	0.05017302949050984
239	0x3fb129e01064139e	0.06704521560830165
240	0x3fb94ee83a5f7032	0.09886027741544082
241	0x3fbb37119cf2caef	0.10630903321979777
242	0x3fba50925bcd2693	0.10279192677730924
243	0x3fb358427fb7c40e	0.07556548708068098
244	0x3fab59e078640587	0.05342008084881927
245	0x3fa2b7521ad2ecda	0.036554876112370585
246	0x3fa92fc85580b558	0.049192676961278436
247	0x3fa14b0e590e0b49	0.03377575718970733
248	0xbf994e584e694e2d	-0.02471292475304503
249	0xbfa108cf0a95a7dc	-0.033270330469193005
250	0xbf812c8c7cc97580	-0.00838575130290553
251	0xbf44c754ae4e37a4	-0.0006341136437286632
252	0x3ee5108fb80dbda9	1.0044428337712226e-05
253	0xbf24a7a098a41887	-0.00015758357432832748
254	0xbf4a4a9465ae018d	-0.0008023476215015965
255	0xbf6f86d9dcaf05c9	-0.0038484816663817184
