cnn_model/weight/weights.npz (npz, 128270 bytes, 4 tensors)

w_i_h f8 [20, 784]
00000000: 50ae 242d f2af d73f e479 709a 7ed5 cc3f
00000010: f0e6 2e0e c86b a83f 2651 e744 52cb d13f
00000020: 6053 0beb 18bd bc3f f09a 53ee cf07 cb3f
00000030: 90f4 a75d 132b ddbf d0cb c22b d02e d5bf
00000040: 600f 53b1 1436 a83f 0cd7 0262 3e7f d53f
00000050: b075 7920 da63 c8bf c2c1 6ca4 3963 dfbf
00000060: 06f9 a53e 042b a93f eded 40e7 90fd debf
00000070: 05dd 4400 35a5 b4bf f10b 9120 1002 d23f
00000080: 9cff 480a bcb8 ca3f 041b 804f 96fd d4bf
00000090: 1c05 ed7b e16d d6bf c0a8 8d5b f918 9cbf
000000a0: 0082 58da 6194 d53f 3832 0a31 26a2 c5bf
000000b0: 4654 ec0c 7bd5 dcbf 4055 0d10 1861 b13f
000000c0: 724e 99ef 35b0 d03f 5cab 6396 6926 d2bf
000000d0: 2e06 ab47 894f de3f 5c32 ee67 c420 cabf
000000e0: 06d8 08d5 da68 df3f 16d0 f149 670f d8bf
000000f0: 46aa 7b65 9db3 d93f d0c5 32d9 abe8 d33f
00000100: 28d2 c474 83a9 d03f ddee c960 b267 afbf
00000110: ef4a 4435 f43b 9bbf f584 d549 6bed bd3f
00000120: ac34 d48d 25c2 d03f 34eb 1105 3220 d33f
00000130: ddef 4dea 35b5 c7bf 331b f5dd 38a9 de3f
00000140: f4d0 9a53 53b2 d43f 331c 5782 2b4a d5bf
00000150: 6df4 1179 52c3 d93f e406 295a da02 d53f
00000160: 2fde 75db 32dc d13f 1ccd 0173 a353 c03f
00000170: 035f 399c 54b7 dabf 9875 e36f 0b41 a7bf
00000180: 58e9 509f 165a b1bf c0dd 3830 721b b43f
00000190: 35e9 9765 b812 dd3f 4a14 90ec c4c6 debf
000001a0: 7a68 79c3 f55c dc3f a60d 3042 c9c1 d13f
000001b0: 289e 695f d176 bd3f 802b ecf5 c7e1 89bf
000001c0: f83e 6436 8b24 d03f 44c0 ec85 40fb dcbf
000001d0: 00fb 2bb4 02cb dabf 5025 75b9 fa5d bb3f
000001e0: 98f1 4f9c 0ac4 9ebf 0882 77fa 604a bbbf
000001f0: d2b0 c4ca 91b2 cd3f d005 e5d8 e1ce d23f
00000200: 4757 904b 7734 d2bf ffdb ebdb 0609 c23f
00000210: ebe8 b7da 23cf d03f 3ac5 58f5 2aa0 d4bf
00000220: ab51 82b4 8c57 d1bf c136 b85a d6d1 e13f
00000230: dd26 f8f3 6e26 b1bf b2ec 9bf2 a4b5 b13f
00000240: 02ee 4584 7af1 c83f 0379 c0bf 5029 8cbf
00000250: 500f ab5d 7304 de3f e6ab f76e 6e62 d4bf
00000260: f683 cec1 7c5d c43f 9e1b 2549 8422 b83f
00000270: 3d03 6fa5 bb75 d4bf b1dc 51fc f3ba d33f
00000280: c7b6 f00d acb9 d7bf ab91 8329 dd08 df3f
00000290: ea5d 1e37 0f5b d33f 10ad 7bd8 1e99 c23f
000002a0: 6ace 7781 4043 d6bf 4c13 6af4 43bc debf
000002b0: 6c4e 9b5f d578 cdbf c358 0ba6 a856 d8bf
000002c0: 82f5 8165 6a04 d93f cba3 9393 304f d63f
000002d0: 776d 1a45 ff19 b0bf b6c7 9ea8 b93a 983f
000002e0: 77e1 25c1 2713 bf3f dc0a b990 d9a4 ce3f
000002f0: c4be ec1a 5643 9c3f f35f c954 a3fb d0bf
00000300: 6398 6b66 a4d3 da3f cd5c ddee 56b8 db3f
00000310: e773 b95b ed58 e23f e0d9 6dc5 1194 b63f
00000320: da7f b086 ec98 c43f da86 d821 bebe dc3f
00000330: 4377 ef64 994a d23f 90a2 c6bf 8d2d ccbf
00000340: 56f6 fa83 2938 633f 700a 595b a07e aebf
00000350: 1388 7627 7251 de3f 782e 181f d8a6 d3bf
00000360: e69c 8484 2380 cf3f 9fa2 9234 2ab4 c93f
00000370: 9b80 4dc0 2088 d63f 346d 82cc 71ea c8bf
00000380: c2b2 c6b2 43d5 d0bf 1e7d e32b 5f5f a43f
00000390: ad32 f04e f12b c3bf bf0c d6af 323b d6bf
000003a0: a8e7 6bbb 4b52 d93f 77ef 1fe9 ce04 dbbf
000003b0: 2b46 a102 fcd3 d93f 6688 8264 ef35 ccbf
000003c0: 2736 b239 b397 d43f d369 377c 3bad db3f
000003d0: 2f41 a8d5 c969 d73f c1cf af27 1eed c43f
000003e0: 577d f1bb b490 e13f d5cd 3f1a 92e7 cb3f
000003f0: c486 5319 043b db3f 1d98 28fa 2902 c83f
00000400: b257 22cc e24b e73f c1b7 4d84 09a2 e93f
00000410: a528 f75d a5d1 e03f 1cee 683d 4d17 dd3f
00000420: d7cd 2413 d92e dd3f 1e70 a852 878e b13f
00000430: 7299 c838 3cef 59bf 43a0 bc3a da5a df3f
00000440: 7c2a 6959 5825 a9bf 0429 d7f7 5b68 d03f
00000450: 2439 e23f e496 d93f c092 385a 56be d3bf
00000460: 202a a820 0ccd 96bf f479 636f 7bb3 cb3f
00000470: 8911 7d26 162f c93f 2a61 d2e8 9347 debf
00000480: c7dc 6dbf 4fc4 ad3f 3c93 9262 610f a5bf
00000490: 8e6b 200f e635 dd3f 51a4 9aef f229 cdbf
000004a0: dd22 6a30 1a32 afbf fd99 c063 b07f e23f
000004b0: ec76 7789 d018 d23f 3f47 703b 1a04 a53f
000004c0: cad5 6557 e156 d53f cccb aa78 8d6e d83f
000004d0: 9e92 529f 8094 f03f d6f6 6637 7830 e73f
000004e0: c6d5 9aa5 6a35 f83f daba fe56 055b f83f
000004f0: ccb0 33bb a3f7 de3f 086c 8dd6 410c e23f
00000500: 2e01 1542 69d5 e53f fb9b cd01 f19b dc3f
00000510: 426d bb38 181e c03f d614 0914 13a3 c23f
00000520: a683 f45f d43a d5bf 746a 25c3 82ab e03f
00000530: 1218 0abc f173 bebf c20f 6623 04c2 d6bf
00000540: ea51 c3de e106 d53f 9a69 5908 c8f5 c3bf
00000550: fe6c 9cea 29a4 debf 1156 bf57 dae6 d43f
00000560: ff36 c4e1 9bd2 da3f 1367 c4ba 8222 d03f
00000570: 23c0 728b b1c8 b53f 2780 2d97 88ad b23f
00000580: 14e3 847b 8495 d73f b3e9 1053 d6cd 983f
00000590: 6e61 2ed4 6938 e0bf 515c 3436 4d90 c8bf
000005a0: 0f1c 4d4a 4507 c6bf 6734 18a1 4399 d5bf
000005b0: b6eb fe4a bf1d cebf b88b 9195 59ec cfbf
000005c0: 4288 96a4 4d48 c6bf 3efe 09b9 788c e0bf
000005d0: a806 abcf 384e a23f 30ca 92f5 5a86 a8bf
000005e0: 7092 e914 bce3 b13f fd15 e87b 568f d4bf
000005f0: f2f5 b437 76f6 ec3f 95d0 caa1 5af3 e23f
00000600: c8ec c16d 4c7f d83f f65f 834b 1de8 d23f
00000610: bbe4 5f66 111e d5bf ec37 a8fd c6ab b63f
00000620: 5735 795d 5897 dabf 3e79 88b5 7f69 c4bf
00000630: d5a8 93f9 c91f c73f 469a 7b4e d1d3 cfbf
00000640: 36fc 4da4 199a c33f b768 1555 45a7 cb3f
00000650: 2ab8 9e03 1bdf 993f 0095 8542 13df c93f
00000660: 8a3e 0d31 b7b2 c5bf 555d 4277 0ca0 d9bf
00000670: eddc 7082 9ee2 d0bf 5f9e 7093 04be d5bf
00000680: a0a5 31e4 76be e8bf 8387 c706 23c1 e6bf
00000690: e1e6 6842 be88 e0bf 47a9 9914 64e4 e9bf
000006a0: 6369 ecd6 5ead e8bf 9464 f7f5 34d7 e4bf
000006b0: 22f4 7a76 57e6 e3bf 9df1 ce30 2a31 cfbf
000006c0: 0fb4 e5e4 1026 c3bf 8186 06fc 16ad c8bf
000006d0: 61cf 47cf 7531 df3f bad5 fb2e 4e18 ef3f
000006e0: 46e9 a6c6 db00 e53f c91b e1c7 2d03 d03f
000006f0: 24f1 72b3 c62b a33f 674c cb66 14b2 da3f
00000700: 5773 4b8a 19a9 bfbf 9bb4 deb1 95fb dabf
00000710: c6c5 c10b 302b b13f 975f 8a8d 527c de3f
00000720: 48c3 1b5a ab3c d8bf b3e3 8c17 cf5c e03f
00000730: d902 c2a8 1733 a6bf 9ec7 8ea8 f01b e03f
00000740: 1b89 aad8 fc80 c7bf 1759 fd3d 7677 b4bf
00000750: 5037 f33c 8621 c83f 5009 5ecb f60f b33f
00000760: 623c f65b 1abc d7bf 012b 991e cb54 c23f
00000770: 16e9 3cb5 a425 d0bf 20cb 2c78 cef1 e0bf
00000780: 2beb a8e8 19c0 e9bf fce6 c4f1 8f6c d9bf
00000790: 5188 a4e1 f114 e13f f647 47d1 abc8 bdbf
000007a0: 81ff 35fd c853 d03f 7944 7a0a 0d4c c23f
000007b0: 1437 9295 9fe6 d9bf 43c2 6ed6 ad67 bf3f
000007c0: 89d9 35c2 dbdc e33f 1c99 e4ea bc3a ea3f
000007d0: 4a7b 158f 81b8 d4bf 26c2 af25 fba5 dfbf
000007e0: 4c0c dbed 266f de3f 6601 76fc ab39 d23f
000007f0: ac48 414e 905a d6bf a66e ec28 b149 dfbf
0.3701138916828528 0.22526533642753954 0.0476973073304644 0.2780347512136977 0.11226039636978902 0.2111759103492754 -0.45575412889577027 -0.33098224900748807
0.04728760399441856 0.33589133807559857 -0.1905472429815922 -0.4904312234603162 0.04915631546735892 -0.48422644217836713 -0.08064585930411645 0.28137591533976464
0.20876265051083187 -0.32797773135864383 -0.3504565916264981 -0.02743901845261898 0.33718153307748366 -0.16901090044520273 -0.450529825802111 0.06788778678795371
0.26075504682851325 -0.2835945099492869 0.4736045074351719 -0.20412497591714185 0.49077482990412624 -0.3759401533236554 0.4015878191991401 0.3110761281087351
0.2603462829895613 -0.06133801871780318 -0.026595893622537167 0.11690397789563518 0.2618497738884098 0.29884005065075603 -0.18521760883947894 0.47907849956066
0.32338412441755726 -0.33265197495024096 0.402546518547587 0.3282991295310309 0.27906485969239986 0.1275524436528962 -0.41743960624943116 -0.045418126495614775
-0.06778088941147098 0.07854379346178231 0.4542675964472836 -0.4808819112952888 0.44317382897646207 0.2774527689327563 0.11509426669510303 -0.012637674515209474
0.25223045646360687 -0.4528352077350102 -0.41864078135397165 0.10690276172421886 -0.03004471377424664 -0.10660368075287618 0.2320120086745932 0.2938770883666537
-0.2844522703102154 0.1409004758677099 0.2626428256913999 -0.32227586707729794 -0.27096860530698547 0.5568649074427513 -0.06699269729883946 0.06917792246888402
0.19486934145594154 -0.013750677921106296 0.4690216459969081 -0.31850777470270797 0.1591030069658072 0.09427668367162176 -0.31968585162762847 0.308285709768323
-0.3707075248847613 0.4849160104188523 0.3024328268306521 0.14529786653961496 -0.3478547348342774 -0.480240811048408 -0.2302500454739972 -0.3802892323996156
0.39089450753075294 0.34858335887707587 -0.0628966850003304 0.023661518971216565 0.12138603654410028 0.2394058186201481 0.02760061778388835 -0.2653587654108371
0.41916761400205454 0.4331261952078876 0.573355368756549 0.08819686002775695 0.16091686798699706 0.44914201073889404 0.28580317360853175 -0.2201401888280725
0.002346116147093717 -0.05955983271680487 0.4737210641270632 -0.3070583633095576 0.24609798403364563 0.20081069533377602 0.35205858974041754 -0.1946546791631164
-0.2630166288243282 0.03979012881040432 -0.14977852205665468 -0.34736315890786423 0.39564793875580984 -0.42216847196663515 0.4035635019000405 -0.22039596946439416
0.3217590392531257 0.43244826441300893 0.36583181252446456 0.16348626077490105 0.5489143057601876 0.21800447732640174 0.42547705147999815 0.18756603922628381
0.7280134188647394 0.8010299285940549 0.5255915484679191 0.4545472240167514 0.45598437184818635 0.06858106391922589 -0.0015829170325872524 0.48992019401567094
-0.04911304561081395 0.2563695831601225 0.3998346923698526 -0.3084922677101467 -0.022266568654268792 0.21641486109633912 0.1967494666988723 -0.4731187604570716
0.05813836299687974 -0.04113296821859655 0.45641471364222574 -0.22784268092553586 -0.06092912522314518 0.578087038830574 0.2827645628402553 0.04104692435806933
0.33342774901333583 0.3817475965872148 1.0362554763352487 0.7246666986536308 1.5130411595285849 1.5222218893283554 0.48386472016751436 0.5639962378003256
0.6823011675515198 0.4470179097756383 0.12591841478465865 0.14560163954062116 -0.3317156731664518 0.5209363757561065 -0.11895666924291984 -0.3555918069544043
0.32854506258197935 -0.15593815238646586 -0.4787697592852992 0.32659014290888516 0.4191045479536654 0.2521063636682907 0.08509359030244971 0.0729604119383117
0.36850082456980826 0.02422270662303001 -0.5068864006198461 -0.19190373560624832 -0.17209688308705082 -0.3374795029820405 -0.2352828136625626 -0.24940032771254805
-0.1740815213825631 -0.5171474088710466 0.03575303587923645 -0.04790004966470851 0.06988120565945066 -0.32124864673855297 0.9050856674218137 0.592206302643279
0.3827696868754171 0.29541714071592595 -0.3299602031471058 0.08855861370849966 -0.4154873764826638 -0.159469569815835 0.1806576222073263 -0.2486516602723034
0.15314026377379414 0.21604220060800625 0.025265142532298203 0.20212021587500573 -0.1695164670477321 -0.4003935970917685 -0.2638317369305259 -0.3397227706759391
-0.7732500512039913 -0.711076272240675 -0.5166922852579 -0.809129753336756 -0.7711633870815543 -0.6512703708678083 -0.6218678773944968 -0.2436878908464565
-0.14959918190598429 -0.19278228097850916 0.48739381067502136 0.9717169683123565 0.656354797355825 0.250194020456942 0.03744336071528867 0.4171191219185801
-0.12367400766693258 -0.4216055142413297 0.06706524169000891 0.47633804151836884 -0.3787029628720586 0.5113292179076921 -0.04335855422050878 0.5034106533187133
-0.18362389163400725 -0.07994784367960893 0.1885230825050095 0.0744623419286985 -0.3708558939042118 0.14321269029672837 -0.25229757021919974 -0.529517397610423
-0.8046998542916745 -0.39725111589687834 0.5338067442974169 -0.1163432489331909 0.2551138375056255 0.14294589053728027 -0.4047011337905684 0.12267576680347596
0.6207102578326139 0.8196701610329771 -0.32376135800398187 -0.49450567894294506 0.47553418377009815 0.28477000860586654 -0.3492775692185528 -0.48887280460778937

b_i_h f8 [20, 1]
00000000: e6e4 88ed 03ae ddbf 252b d2ed bcbc d2bf
00000010: ab42 6509 8e86 de3f 9423 6384 7286 f73f
00000020: ecd1 ec82 d2bf d93f cdc2 6417 6f77 fcbf
00000030: abfd 56ee 5355 ed3f 8b38 f503 08f2 f13f
00000040: ccad fe37 7eb6 ff3f aa57 7c90 4eb4 e4bf
00000050: 44f4 3024 9d7b f1bf 9250 ec3e 2e58 d53f
00000060: 7b21 e3f1 d591 f23f 3ebe fcf6 2148 f3bf
00000070: ea11 be65 b68d f33f 711c d715 a4cd f0bf
00000080: 83cf c0ec 1dbf ecbf 0e06 bf3e bd4b e4bf
00000090: 5811 cccd a7a9 b6bf 990f d660 37b3 fbbf
-0.46374605366470545 -0.29276965355590995 0.47696257512601886 1.4703240558030517 0.4023329046788422 -1.7791586793720626 0.9166659979891184 1.1215896753888355
1.9820539653108993 -0.6470101186739516 -1.0926791585655034 0.33350711960634627 1.1606044243545444 -1.2051105163517515 1.2220977758707883 -1.0502053120742654
-0.8983296989522248 -0.6342455125342796 -0.08852623724312048 -1.7312539847052675

w_h_o f8 [10, 20]
00000000: 90e7 8132 30ad d63f 541f c45d ed52 e73f
00000010: 2ac4 e00b f672 f7bf 1f99 0744 a604 ccbf
00000020: 7128 39f3 5ac1 0fc0 e737 49fa 6d6c f53f
00000030: c882 4ed8 e9d3 f4bf d441 0bdf 30ec fc3f
00000040: 5022 7328 5d59 14c0 d4da bd9b 3acf e7bf
00000050: 6013 a17b f7da e33f 3c67 8c5d 9289 0240
00000060: cf8a 7cdf 66f4 b7bf ea2a 1ed5 cf17 01c0
00000070: 228e 8db6 7992 0240 d686 c7ac 4aef 08c0
00000080: 4795 6c44 bb52 fcbf abf6 e897 40b8 04c0
00000090: 5ce0 a855 356e e43f f3c5 9f47 d2ea e33f
000000a0: dd6d 5c09 4289 0140 955f d54c 6f58 ee3f
000000b0: 5ae4 0a74 9c06 0440 9c30 f335 1ebc f5bf
000000c0: bb69 7fd7 c992 f2bf 8ab7 65ae 6bde 17c0
000000d0: 7941 db4f 0b32 0c40 5943 3612 febe f6bf
000000e0: ef69 9125 e0a5 f0bf 3842 903b 8fab 10c0
000000f0: f4c8 14f8 a6a9 0ec0 21fa 9500 7763 edbf
00000100: 59a4 7bc6 f467 c93f 0f70 66d4 2c35 f8bf
00000110: 7da1 a9ab 38bf f1bf 6a25 83db 9819 e43f
00000120: 693d 3b17 1a9b 00c0 9beb 2b1c aa4f e53f
00000130: 662a 7ab1 6c1c 0040 2c50 485b 2ac0 a3bf
00000140: 4f47 0380 c019 f6bf 87f2 0942 77f4 e5bf
00000150: 7e35 e954 3420 18c0 3594 079d 7c7f 0140
00000160: b086 9185 17b4 ba3f e7e8 3220 c265 f93f
00000170: a9b0 b7f4 1328 d2bf e171 773c f8ef 03c0
00000180: 448d 7f50 03fb ffbf 6680 de56 63e5 00c0
00000190: 346f 31d9 b298 0ac0 a16d a3ec db92 c6bf
000001a0: e44e 9c8b 0685 fabf d958 f3c8 034b 0a40
000001b0: 360b e18c a1a6 b9bf 2f28 1efd ea89 1040
000001c0: 64da 3369 e52e 0640 3be9 9786 b516 c1bf
000001d0: f7d4 c17f 2cdf ff3f bf17 df10 1023 f2bf
000001e0: b867 85d1 e6f0 f3bf c7b1 6091 a5c0 febf
000001f0: c19a 8069 bee1 fd3f b8ab 9158 690c 0ac0
00000200: e016 34a6 e80e f9bf 2db2 0779 1abf f43f
00000210: fe14 cf5f aabd e3bf 9458 7231 5206 0240
00000220: 5738 fd8b 79a5 f93f 7bd9 ff19 e6d5 0340
00000230: d11b 9afc cfd4 0fc0 e33a 7717 e14b 03c0
00000240: b723 bc23 3f1f 0ec0 4c70 9087 2852 02c0
00000250: 016e 5f10 7fee f6bf 03f1 ef3a e6a7 f93f
00000260: 29d7 5e68 6e1a ffbf 8960 27b6 c5b7 0640
00000270: 0db4 1d08 7f79 9cbf 91cb e2e1 179e ec3f
00000280: 5770 cb33 193d 0e40 2ab5 9aba 8faf 12c0
00000290: 5911 9a33 c78c a13f 7075 0346 8976 f3bf
000002a0: e9d4 6df9 aa3a f63f f7b4 1c8f ef28 e6bf
000002b0: 1506 e7cd 5be6 12c0 1886 f028 b84c aebf
000002c0: 0054 89da c62b f3bf 540c fc70 d88f 03c0
000002d0: f385 646e 5c09 fbbf 54c1 a6bb daa0 d73f
000002e0: 71c9 0c1c dbfe 0040 f5f9 cd31 f3ac fc3f
000002f0: 0a0b cdf0 2f9d 0540 05ab f37e d186 05c0
00000300: dd4a afa2 ce31 0240 d3a5 8ca4 cfd6 e5bf
00000310: 3379 7cb3 3fd2 07c0 8917 f2e3 76e6 03c0
00000320: e66c f03a e0e9 fabf 8708 4908 8cb2 ddbf
00000330: 2311 e435 6206 e1bf d436 69e5 9c2d 0040
00000340: 38ba 49b5 1e38 0a40 865a a269 670e debf
00000350: 22fc ff9a 01e7 fc3f 2d6e 96dc c317 ae3f
00000360: 24f0 3dbd 7180 0f40 69c5 daa8 a74c efbf
00000370: 1424 af24 9d9f c0bf cd75 df3d ee21 13c0
00000380: 0b88 859a 0181 0940 4386 ea50 c59c 0bc0
00000390: 6bb0 fa73 df1a c1bf 4a17 0c18 dbd0 00c0
000003a0: 4332 51ec c744 f8bf c1ba b78e 72d4 11c0
000003b0: 8b24 3327 f227 0c40 3e78 5aca bb38 01c0
000003c0: 248b 363c c319 eb3f 3afa fb11 4fe0 08c0
000003d0: fa1d 13b2 8794 f3bf eedd d546 da78 eb3f
000003e0: 48df 30e5 f3bb ecbf deeb fa39 a8d7 0ec0
000003f0: 3208 b5a4 751e 0140 5c9b 7a4e 726f f5bf
00000400: ad1b c481 0c6b f0bf ecff fab5 2c00 f13f
00000410: 7719 6e1c d646 0640 e379 abf1 654a fb3f
00000420: 9417 e68f a22a 0bc0 a806 1ad1 eec7 06c0
00000430: 3fa5 16f5 a57c 0ec0 a56d cc9a 3392 0fc0
00000440: cf12 994e 7f82 e23f 6ed1 d44f dec5 ea3f
00000450: e53d dc11 ab74 fcbf 9153 86a6 d06a fa3f
00000460: c680 991c 61da 0dc0 9970 371b b6fd efbf
00000470: 330d ac94 38c9 0740 e66c 7235 6377 f83f
00000480: 363d 8113 ba06 06c0 ccc0 e7fa 2c9e fb3f
00000490: 171f 388b 28b2 c83f e80b 73ea c2e9 dbbf
000004a0: ccd9 0933 25c0 0040 036f 0d0d 403c 06c0
000004b0: a92d 464d 422d f13f d414 e152 b338 ee3f
000004c0: 7f51 b3a0 1fcc 0340 b8dd a224 0a43 463f
000004d0: 4d6b bb0d 55d0 f1bf c1e7 cadb 2c04 0740
000004e0: 3e77 a409 bfac f9bf 10e2 2b20 7f99 d23f
000004f0: eecc a1c4 1dce 13c0 94a2 c7c3 b144 09c0
00000500: 8bc7 59aa ce9a b73f 30dd bec8 448e d6bf
00000510: 94a0 d05c 5f7b cc3f 6e9e 835c 6764 10c0
00000520: 71d2 d8d8 0fef e83f 1086 ca1b 81c7 0140
00000530: a930 06a4 ae74 0cc0 6213 aacd ec00 09c0
00000540: 59b0 866a 5125 0440 c41e ad85 357c e43f
00000550: 13ea 11fe 7101 f03f 63e6 e923 10af 0c40
00000560: 9bd5 7427 7a11 10c0 1ab1 3e97 6f42 0540
00000570: d387 5c22 69a4 ba3f 8f3f 3da4 7eee 14c0
00000580: 7cb2 ff3f 3e60 15c0 f983 7a34 5cbb 02c0
00000590: 12d1 21f9 deb7 f2bf a662 39ca 721f e63f
000005a0: 3485 d3f4 1a5f 10c0 7289 b563 ad0f 1440
000005b0: 301d ea56 f9fe f6bf d444 2b13 c955 03c0
000005c0: 94ef 5010 6ec7 c6bf 88f9 3cfb 7000 01c0
000005d0: d7a3 9290 d196 04c0 d8b8 462c 4ae2 ed3f
000005e0: 6a36 3a15 57e9 05c0 a64c 171e 972c e2bf
000005f0: c7a7 5095 7955 9a3f b8da ce27 c8e9 09c0
00000600: 1683 63e8 2144 e9bf ac6d 538a f632 f73f
00000610: 296f 9dc7 0a22 0840 9c6c 0275 a158 15c0
00000620: 5fc5 3f7c 2ef4 0640 4510 b5eb 730c f33f
00000630: 5721 a0c8 7b3c babf d93a 292f 4a2e 0840
0.3543205731617656 0.7288729506844711 -1.4655666793808089 -0.21889189073335388 -3.969411754781554 1.3389720703885304 -1.3017366837959106 1.807663794770737
-5.087269432093834 -0.7440465013340494 0.6204793371804094 2.317173701140659 -0.09357302623952111 -2.136626877768653 2.3215212118100377 -3.116841649855682
-1.7701981232470005 -2.5899669521303017 0.63845316629796 0.6224147223385316 2.1920204860050334 0.9482952595380875 2.503228098471067 -1.3584272487087565
-1.1608370225791151 -5.967207646330175 3.5244356383120103 -1.4216290198712243 -1.0404969661236654 -4.167538576774454 -3.8328379994719572 -0.918391705650553
0.19848499003936373 -1.5129822060471303 -1.109184904629813 0.6281246459340484 -2.0757333579019144 0.6659746694780212 2.013879190960597 -0.03857548107421879
-1.3812870979786174 -0.6860920228787827 -6.0314496295299005 2.1872493999421985 0.10431048403691068 1.587343335892507 -0.28369616411397175 -2.4921726917220757
-1.9987824577772964 -2.1120058809902273 -3.32455987627136 -0.17635678343399966 -1.6574769452608331 3.2866283129943494 -0.10019883813315009 4.134685473409305
2.7728985041570002 -0.1335055262750958 1.991985796977415 -1.1335602435151342 -1.2463138756197463 -1.9220328978363896 1.8676132317720404 -3.2560603064971154
-1.5661398403475957 1.2966561057793442 -0.6169025298374036 2.2530864584942467 1.6028991192174737 2.4794427901462632 -3.978912328198455 -2.412050422025787
-3.7652571479597685 -2.2901163664774113 -1.4332266463815133 1.6034910490262184 -1.9439529492351062 2.839732573582357 -0.027807221289027285 0.8942984973749494
3.77983322586628 -4.671446719830138 0.03427717690377347 -1.2164395079519998 1.3893232100793347 -0.692497043147937 -4.724959580636569 -0.05917907237768477
-1.1981876885013207 -2.445237047855281 -1.6897854149068479 0.36919277501421743 2.12444135583899 1.7922241158954624 2.7017515957426257 -2.6908292692290865
2.2743199071640974 -0.6824720586638996 -2.9776605627404478 -2.48753145296627 -1.6820986082373621 -0.46402264412984845 -0.5320292522961022 2.022271911881811
3.2774023211598227 -0.4696291476806568 1.8063980154690928 0.05877506320686297 3.937716940357875 -0.9781072900715745 -0.1298710278627203 -4.783135382427145
3.1879913398743205 -3.451548225552672 -0.13363259470986874 -2.101980388516414 -1.5167922240390375 -4.457468252147636 3.5195048391802337 -2.152701931844631
0.8468948532139149 -3.1095258145353712 -1.2237622219125783 0.8585025199417353 -0.8979434467682745 -3.855301335306179 2.139872824453982 -1.3397086206038784
-1.026134974382994 1.0625426395999922 2.784588071927995 1.705663627646225 -3.3958178751081025 -2.8476234756534105 -3.810863413575731 -3.946387490619332
0.5784298453441695 0.8366538581090432 -1.7784834573429802 1.6510778908607089 -3.7316305384011654 -0.9997206241200899 2.9732524504667253 1.5291473472378185
-2.7532845996680875 1.7261171151149481 0.19293696210683528 -0.4361426629586149 2.0938209521657196 -2.779419042561018 1.0735495584984653 0.944421445725903
2.4746697001193634 0.0006793784644036271 -1.113362363472976 2.8770386859223156 -1.6046743752153385 0.2906186880277639 -4.951285431266326 -3.1585421843813695
0.0922059217353121 -0.35243339160975307 0.22251503021221153 -4.0980505423864155 0.7791823611538132 2.222414223783524 -3.5569737257374823 -3.125451666596221
2.5182216951707628 0.6401622401108047 1.0003528523071779 3.5854800039058303 -4.01706754351235 2.657439405060484 0.10407120789434936 -5.232904974211023
-5.34398746488716 -2.3414844608200807 -1.169890378162624 0.6913389157953886 -4.092876267824341 5.015309865908749 -1.437249507436558 -2.416887426145516
-0.17796111866652764 -2.125215494917203 -2.5736419005156494 0.9338732590456642 -2.7389356287374556 -0.5679431522097687 0.025716685999362967 -3.2391512975694603
-0.7895669497339408 1.4499421504359402 3.0166221232338057 -5.3365534098367355 2.869229288765083 1.1905402381244283 -0.1024854054268237 3.0226024326760634

b_h_o f8 [10, 1]
00000000: 42a8 02c0 8a52 04c0 8204 e47a 607b f4bf
00000010: 12ca cca4 1b3f f5bf 30f4 23b0 fa79 04c0
00000020: b8b4 16ff 5835 00c0 7606 e60c fffe 02c0
00000030: 6006 b7a0 6128 00c0 0ae3 17fb b84f febf
00000040: e922 80f4 4a3e 13c0 76b9 ab2c 7b69 0cc0
-2.540303707200139 -1.2801213074128843 -1.327907222509229 -2.559560180756783 -2.0260486534885693 -2.37450990750295 -2.019717460237004 -1.8944635208446834
-4.810832805939506 -3.5515044679552217
