cnn_model/weight/weights_softmax.npz (npz, 179166 bytes, 4 tensors)

weight_1 f8 [28, 784]
000000 dc c6 9f f1 ea a9 c0 3f 16 16 94 af 25 75 dc 3f
       0.13018547819188242 0.44465009828886204
000010 f8 ae 08 a2 fe 6d ca bf 9a 31 60 e4 50 22 d3 bf
       -0.20648177062809459 -0.298969481490326
000020 84 54 56 5f 0b 31 d8 bf 72 42 7a a1 d1 08 d5 3f
       -0.3779934340503319 0.3286632611207444
000030 10 79 4e 41 98 e2 ac 3f 46 8d 8c e2 c9 be d4 bf
       0.05641628071974669 -0.3241448128121259
000040 40 b6 82 ff 55 b4 a4 3f 10 11 7f 6e f5 82 d0 3f
       0.04043835395837592 0.25799308577212887
000050 f8 17 71 e2 3b 52 b3 bf 44 67 99 3a 9b e4 d5 bf
       -0.07547354009975027 -0.3420780250795483
000060 a0 16 0d 1f e1 a5 d3 3f 04 9f d1 43 4f 00 ab 3f
       0.3069994738801629 0.052736737278619855
000070 5f 7c c5 65 af 47 d5 3f ab ce 91 01 4e c1 d7 bf
       0.33250031412712205 -0.37117338326718635
000080 46 39 d1 37 94 9f d7 bf 94 68 5c 6d e0 3a c2 3f
       -0.3691149277773501 0.1424217733372798
000090 1c 48 ff 73 4c f6 da bf f6 d5 91 00 db 64 d2 3f
       -0.42128287628031713 0.28740572982437074
0000a0 00 ac 77 3c 0e d6 8c 3f 4c e8 4d 25 ff a5 d4 bf
       0.014080153675385176 -0.32263163226128166
0000b0 18 90 b1 be b6 0f bd 3f 10 c9 4e 22 b6 66 ae bf
       0.1135210242806014 -0.059377376258810455
0000c0 f8 03 44 15 9e 7b b3 bf 86 db d2 7b a9 ed de 3f
       -0.07610500353986527 0.48325574009089
0000d0 4e 48 15 9e e4 2f d5 3f 2a 00 e3 ab 63 ee de 3f
       0.331048159006177 0.48330013070881483
0000e0 60 ea e0 df 79 f9 b7 bf 90 a1 0b bf c4 0c ce bf
       -0.09365045276437334 -0.23476466492071468
0000f0 84 28 b9 26 34 5d df 3f cc 98 82 14 cd 34 d8 bf
       0.49006370336122296 -0.37822272303527593
000100 b6 37 b1 31 8b 9a 97 bf 92 12 34 9e 5f 78 ca bf
       -0.0230504750327822 -0.20679850792671012
000110 98 10 7e 96 d8 31 df 3f e5 2e c3 fa 19 16 d4 3f
       0.48741736122634327 0.31384896744269347
000120 b1 bc 3c 49 2a 9f c8 3f bb f6 aa 32 3f 73 c5 3f
       0.1923573358157902 0.1675795552636624
000130 5e 4d 70 06 c3 b9 a4 bf b2 49 ed e0 7e 6c c8 bf
       -0.04047975019070792 -0.19081102354773588
000140 44 9c c8 9c 0c ec 9d bf 95 a1 83 29 23 54 c3 3f
       -0.029220768994630456 0.15100516821918278
000150 41 46 97 fd da a0 be bf e8 df 2e a4 4b 7d b9 3f
       -0.11964195910629717 0.09956810720802844
000160 40 61 25 09 4a f3 d8 3f ff 5c 34 2f e5 1c d1 3f
       0.3898491944614939 0.2673886261922717
000170 ff de c1 92 1b 73 de 3f 88 e5 24 02 53 f8 d5 bf
       0.4757756169487805 -0.34328150948893965
000180 d8 3d 5a e6 f3 a8 d3 3f 26 cc d6 42 39 99 c5 bf
       0.3071870564972108 -0.16873851550698865
000190 01 02 a1 55 12 09 e0 bf e7 fa 3f 4f db 03 db 3f
       -0.5011073753776715 0.42211039294481484
0001a0 4c 11 5d ea ed 1e de 3f 6c d0 5d 54 20 15 c3 bf
       0.47063777815880736 -0.1490822231240857
0001b0 d4 b4 ca cc e5 7c c6 bf 48 11 8f 7f 70 cd d9 3f
       -0.17568657397843046 0.4031640287105529
0001c0 c0 2f 04 a6 a9 14 ae 3f 80 7b e9 27 bb 7a d0 bf
       0.058751393809955754 -0.2574909105077765
0001d0 7e 1c c6 b0 32 a9 d1 bf 8c a9 64 77 4c 6d db bf
       -0.2759520269687029 -0.4285460630368554
0001e0 51 c8 57 19 78 63 dc 3f aa 8e d3 73 79 ec 92 bf
       0.4435711143006574 -0.018480203337175517
0001f0 08 ea 88 64 ad 5c c0 bf dc d3 12 62 1b 9e da bf
       -0.12782828720976647 -0.4159000833272424
000200 4d 66 12 81 a7 c5 c6 bf 35 72 5f c7 4d 0f dd bf
       -0.17790693094575474 -0.45405907125476413
000210 1f d6 0a 2b c7 86 b9 bf 7d 99 e9 d7 9c 01 ce bf
       -0.09971279908025864 -0.23442421476938682
000220 6d 66 e0 82 8a 96 cd 3f f2 a6 88 5f 61 f0 e2 bf
       0.23115664854485676 -0.59184330614991
000230 f5 17 72 25 c0 3e d1 bf 75 98 04 78 b3 5f ba 3f
       -0.2694549909286928 0.10302278213620915
000240 e0 af c5 81 91 a3 c4 3f 8c 17 d7 0e d2 10 d6 3f
       0.1612417110112565 0.34477664422262744
000250 e3 82 84 c4 4f 23 d4 3f 84 c7 f3 b2 30 be c5 3f
       0.31465524855779686 0.16986664522078965
000260 ec ca ef 97 70 2f a6 bf 80 ac 29 35 26 85 de bf
       -0.043330687090834846 -0.4768767851989608
000270 45 c9 4a e8 68 4d c2 3f f5 0d 3b af ee 99 db 3f
       0.14298735945119226 0.4312702857243658
000280 0a c4 b3 d3 1b a4 db 3f 7f d9 81 db 7e ba d4 3f
       0.4318914000896831 0.3238827842355007
000290 50 f2 d5 b7 ae 20 a5 bf 80 11 31 cb 1a f6 c0 3f
       -0.04126497263039097 0.13251051827877447
0002a0 48 90 84 25 03 56 cc 3f 60 7c d6 d7 c5 53 d2 bf
       0.22137488681721806 -0.2863630874434815
0002b0 5c 69 4a a8 7e b8 a9 bf 1e 84 d6 92 67 2d de bf
       -0.050235708277983376 -0.4715212758983983
0002c0 bf 50 6c 8b 67 18 d2 3f db d4 ce 22 d2 ed da 3f
       0.2827395307115345 0.42076543235027736
0002d0 30 90 56 b5 5a 2f d9 bf 7e e8 77 6f 19 bc ad bf
       -0.39351527890017035 -0.05807570920656334
0002e0 90 d3 fb 2e 7c 45 d0 bf 4b 5d 3a 1c a2 e3 c2 bf
       -0.2542410334420362 -0.14757181528396254
0002f0 82 2c 13 83 5b aa df bf a1 af 58 ad 7d 22 d0 3f
       -0.4947727947262096 0.2521051590763311
000300 52 c7 cf 26 d7 e4 ca bf ed a2 cd 81 98 05 c5 3f
       -0.2101086558828294 0.16423326814699327
000310 09 b5 dc 20 9f bd d3 bf 93 38 ef 1b 39 c8 bd 3f
       -0.30844858369057754 0.1163364117812498
000320 84 e3 28 11 07 fb c7 bf 83 cc 36 20 53 b0 b4 bf
       -0.1873482545650199 -0.08081550156093624
000330 16 31 2b 7d 3a 58 be bf 3f 49 2c fb bf e0 de bf
       -0.11853375965001009 -0.4824676468716866
000340 d4 3f 4e 94 f4 ed b8 bf c4 93 ea 31 9c f2 c8 bf
       -0.0973809110712403 -0.19490387379951646
000350 1a 1f 71 c7 c4 41 d7 bf 13 2d 24 7e 8a 63 d4 3f
       -0.36338920094247984 0.3185754997109182
000360 0b 94 ee bb dd 4b e0 3f 94 fc 3e 1d 67 0d d5 3f
       0.5092610044999913 0.32894304138239616
000370 21 48 97 78 c7 24 d0 3f 44 cb 6c d9 c9 e0 cf 3f
       0.25224482323131 0.2490474998135942
000380 d0 1d f2 5a 54 ff b1 bf 8b d5 24 b2 62 f7 c0 bf
       -0.0703022691760602 -0.13254960726196105
000390 b9 79 04 15 80 41 da 3f b6 de 88 0a 5d c8 aa bf
       0.41024782230843077 -0.05230990174862653
0003a0 3e 93 68 ed e1 35 d6 3f 83 bc 26 2f 47 f4 99 3f
       0.34703872856544027 0.025345909359824958
0003b0 15 7e 4b 93 5d c4 a5 bf 05 62 46 6d 5e d7 de bf
       -0.04251377509148938 -0.48189507171039764
0003c0 71 8f 33 17 fe c0 b3 bf b6 5f ec 1c 02 57 d1 3f
       -0.07716358248177159 0.2709355623678634
0003d0 cc be fb e0 21 92 dd bf 57 f8 9f 91 f9 54 8a bf
       -0.46204421015771113 -0.012857389217966793
0003e0 15 b3 ed d1 c2 4c c2 3f f5 e6 07 5d 49 e5 d3 3f
       0.14296756029525484 0.3108695419792718
0003f0 34 85 61 6b 8d e3 c4 bf d8 12 f3 cf e4 2a df 3f
       -0.16319434874734784 0.48699302966660474
000400 50 8b 7d 0f 9a db dd 3f 18 0e c1 50 35 d3 cf bf
       0.46652843010649736 -0.24863306468078927
000410 82 a7 b9 69 7b c0 cb 3f 9f 8d 8e 63 f3 8a 92 bf
       0.21681158697475317 -0.018108179999797632
000420 e3 b8 58 f9 8b 99 c0 bf d8 8d 1c 58 90 a6 a5 bf
       -0.12968587565541786 -0.04228640628414454
000430 87 07 98 3c ba 26 d5 3f f7 49 33 24 af 4d d7 3f
       0.3304887382256471 0.3641164639967935
000440 f2 fc 3f b4 bc 82 ba 3f 22 ad 89 13 7e 64 c8 3f
       0.10355739021905544 0.1905667872809796
000450 39 8e 25 d1 c8 06 cc 3f 5f fb 3b 1e 3a 93 b5 bf
       0.21895704471818236 -0.08427775610105702
000460 dc a0 4e 41 e4 8e d1 bf 3c b7 77 05 50 d6 cd bf
       -0.2743464124455508 -0.2331028010079822
000470 d2 92 6b bd 34 a5 de 3f 3d ec 66 58 04 3e b3 bf
       0.47883337495868006 -0.07516505392315849
000480 50 c5 3e 27 03 11 bf bf bf 69 86 29 c4 e9 a1 bf
       -0.1213533373654816 -0.03498662001512142
000490 20 ba 6b 8e f2 15 e0 bf 1e 4b 0e 34 e2 5a d3 3f
       -0.5026791364342138 0.30242209514215
0004a0 7f c0 31 d7 5b 07 e2 bf d7 4f 2b bc e2 26 db 3f
       -0.5633982851995966 0.42424839378258866
0004b0 d5 f7 f4 80 d0 ad d7 3f 92 cf ed 7c b6 ae c1 bf
       0.3699837931961814 -0.13814431285902323
0004c0 cc 86 24 3b 73 e5 d1 3f 6f c2 4a 82 99 d1 e0 3f
       0.2796295239987614 0.5255858940855215
0004d0 02 bc e9 db 42 99 d7 bf 80 f8 fb 38 15 a8 c1 3f
       -0.36872931934243536 0.1379419830554447
0004e0 4d 68 da 13 3e 7b d6 3f 08 ca 9b 13 dc 86 b8 3f
       0.3512721246603448 0.09580779532169725
0004f0 d8 b2 5d 19 a6 62 a0 bf 5d d0 be 7a 57 6a c5 3f
       -0.0320026308025711 0.16730779164720647
000500 f6 e5 41 98 ff ce d4 3f 8e bf 67 1b 80 91 d8 3f
       0.3251341807259388 0.3838806407575185
000510 0c 79 7d a5 af 41 ca 3f e5 da bc fc 24 2c d3 bf
       0.20512958126614256 -0.29956936532418715
000520 c4 f2 7c 2f 25 c2 c1 bf c7 4c 42 5d ba c4 cd 3f
       -0.13873734301332352 0.232566161667455
000530 f1 d9 83 8f 73 50 d5 3f 0f 0e ee 71 2f 35 d3 3f
       0.3330353642953972 0.30012117505995745
000540 d4 68 a2 3b a6 46 dd bf f0 0a 75 41 c3 55 d8 3f
       -0.457437093960505 0.3802345408659411
000550 e1 3b f5 d4 e1 ff 7f bf df 8a 45 ae fa d6 cc bf
       -0.0078123876149467095 -0.2253106451926987
000560 c0 88 c8 40 cc b3 c3 bf fe f6 de d1 24 e7 c6 bf
       -0.1539244953465353 -0.1789289498100785
000570 fb b2 ba 3f f5 ba d9 bf 83 eb e0 4f 0d 85 da 3f
       -0.4020360109669096 0.4143708496155158
000580 a7 a5 d8 c0 b2 61 ba 3f a1 f9 7b 4e e0 50 d8 bf
       0.10305325706635547 -0.3799362913558984
000590 c6 c0 35 0e 68 ca bf bf f7 5c 5b d2 5b 8a d6 3f
       -0.12418222758219874 0.3521947435633161
0005a0 d9 3f 6f f3 ed b2 d0 bf 9e eb 2e f9 49 1f b6 bf
       -0.2609209897318557 -0.08641493161751021
0005b0 f2 f4 2f d7 81 de bc 3f 73 25 6d 0a b4 93 dd bf
       0.11277019027325588 -0.4621400930232859
0005c0 11 e5 22 6f ee a2 a5 bf 16 88 f3 a8 5b 6e d7 bf
       -0.04225869280475981 -0.3661107206263535
0005d0 fb ee 80 2e 4e 7f d0 3f 99 6d 7c d0 74 2f 91 3f
       0.25777010480281576 0.01678259394166801
0005e0 de 7b 5f 97 9d 41 db 3f 44 dc 14 4b c8 ed b0 3f
       0.42587985785024596 0.06612827141803829
0005f0 9c ef 30 0c 9c 0b da 3f 7d 7d c5 fc 3f a3 d2 bf
       0.4069585913709888 -0.2912139862509873
000600 4b ac 2a 4c 3d 98 9d bf c3 2c fe 7a ff 8b d2 3f
       -0.028901059888692775 0.2897947980024577
000610 04 bb 2c a2 f0 c8 9b bf f4 2f 19 0b 7e 2f cb 3f
       -0.027133712671623136 0.21238685171044802
000620 8e 25 11 71 b9 f4 d8 bf b5 05 69 86 34 0f d0 3f
       -0.38993679086396404 0.25092805028915716
000630 db c3 e4 bc ae c6 dd 3f 5a 80 10 a5 94 fb d6 3f
       0.46525162169115014 0.3591052638967135
000640 1f c2 59 ce 8b 79 cf bf 3d bb 43 d0 6d 27 d3 3f
       -0.24589679313386711 0.299281552680373
000650 9e 7d 28 1a 72 c9 e4 bf 6d 63 19 bd 36 cd bd 3f
       -0.6495905409719176 0.11641256443671262
000660 d1 34 11 26 7f 9a c1 3f 81 5b ad a3 19 c2 d2 bf
       0.13752736433744997 -0.2930969332132279
000670 43 2d 9c 1a 02 49 c1 bf 78 91 0b 60 98 5d d7 bf
       -0.13504053401298152 -0.3650875986043256
000680 9d db a7 98 29 81 d1 bf 72 cd 05 50 c5 f3 d6 3f
       -0.27350845248968786 0.3586285859557484
000690 d9 f6 33 3c 32 bc da bf cc 2f a7 ce f3 6c 78 3f
       -0.4177365863723544 0.005963280078912402
0006a0 4f f5 b9 70 24 b5 b7 bf a9 0b b1 22 aa 84 72 bf
       -0.09260776283368453 -0.0045210500639453555
0006b0 e3 cb e7 06 22 7b c0 bf fc 75 54 0e e9 06 68 bf
       -0.1287577184408227 -0.0029329826235329187
0006c0 9c c1 ce ce 4e 1b c0 bf 95 6e de d5 d4 e7 bd 3f
       -0.12583336923627264 0.11681871625335767
0006d0 05 7f 74 92 44 9b d1 bf 43 8a 3e 20 a4 f8 da 3f
       -0.2751017980790354 0.42142584942681455
0006e0 f4 0f 8d 5c 85 1f ca 3f 09 6a 12 ac ce e9 a2 3f
       0.20408694285481455 0.03694005823600228
0006f0 9e 9b d1 97 5c f6 ca 3f 4b 51 24 dd da 69 db bf
       0.21064336216951757 -0.4283358726109056
000700 e1 b3 0a 3a 81 34 da 3f 35 f1 73 11 98 e9 d1 bf
       0.40945463817734945 -0.2798824472845525
000710 ed bc 59 8e 12 60 cc bf 6d ef d4 26 c8 ca c1 bf
       -0.22168189955434717 -0.13900091072161605
000720 fb 33 3f 09 c1 a1 df bf 51 cf 71 3c ca c7 dc bf
       -0.4942476835538511 -0.44969421294012074
000730 66 89 d3 72 f9 81 65 bf b3 5f 6a 44 96 78 d6 bf
       -0.0026254531900217646 -0.35111004525378603
000740 88 a0 8a bf 8f fb d2 bf 9e bd 5a 86 00 26 c1 bf
       -0.29660409646249564 -0.13397223053241886
000750 ca e1 1a a2 ce 12 c3 bf 33 d2 d6 20 65 e6 a8 bf
       -0.14901144900592406 -0.04863277459972828
000760 d4 be 1f 4a 22 f7 a8 bf af 88 01 12 e3 c7 da 3f
       -0.048760482357349894 0.41845013388059277
000770 6e 9d 82 90 b0 10 c8 bf f2 45 c0 15 4c b8 cb bf
       -0.18800932937777354 -0.21656180440963585
000780 7f 10 3e 3f be 97 c3 3f c6 f9 9b 39 8d 38 d2 bf
       0.1530683335114453 -0.2847016394224763
000790 fb 19 cd 15 e0 61 d3 3f 93 b8 bb db 4b f1 d4 3f
       0.3028488362218977 0.32722755869225145
0007a0 ac cf 5b 9c 23 0b bf 3f fb f5 95 ba bf 17 e3 3f
       0.12126371924733687 0.5966490406278234
0007b0 22 f6 a5 23 92 36 b7 bf 9e 81 3d 05 0c c0 af bf
       -0.0906764351875258 -0.062012076987915096
0007c0 19 3a 5d fd 5c 3f ba bf fa 89 2f c3 fa d6 b6 3f
       -0.10252934632919909 0.0892178274657808
0007d0 38 b3 cb de 0e f2 d4 bf a1 60 e3 10 68 5f d1 3f
       -0.32727405316727554 0.2714481511043321
0007e0 8a eb 18 d6 69 24 d9 3f 33 35 b4 67 95 ac d0 bf
       0.39284749896949533 -0.2605336678251035
0007f0 38 86 40 91 13 a3 d8 3f cf dd a1 c9 94 c3 bf 3f
       0.38495339569826426 0.1240780823007903

bias_1 f8 [28, 1]
000000 cc 26 06 b1 df c4 d3 bf 91 be 6d 7d 0a 5c e8 3f
       -0.30889122283461456 0.7612354707507213
000010 8c b1 d4 8e da 7a c1 bf 67 d9 86 c5 6c a2 de 3f
       -0.13656169866716217 0.4786636284801688
000020 d0 0b de 9f 21 ce d5 bf 28 b4 73 fb 57 54 ba 3f
       -0.3407062588886989 0.10284948243106895
000030 f5 87 bc 69 dd cf d0 3f 6c be f8 4a f4 36 db 3f
       0.26268706632447386 0.4252291423935961
000040 93 bc 45 ff f6 a8 c3 bf 34 ce 2b 63 d0 c6 eb 3f
       -0.15359389748070792 0.8680192887245028
000050 ee 6c 07 de db 98 d6 3f 52 e6 f3 72 83 99 e4 3f
       0.35307976419944864 0.6437394375963754
000060 3c 92 07 2f 79 d2 df 3f dd e5 22 3e c1 c9 c1 bf
       0.49722127526027626 -0.13896956953048703
000070 c6 3c cf 75 78 cf c1 bf d8 da 2c b1 01 ee e4 bf
       -0.13914399864595434 -0.6540535412267117
000080 9c ae 19 47 72 a1 bd 3f 24 b7 fa 94 cd d4 d5 3f
       0.1157447265229003 0.34111346768155415
000090 ef ca 1c 5c 2f 75 f1 3f 77 f4 96 11 68 0e d1 3f
       1.0911096189635676 0.2665043041013812
0000a0 cb 08 03 81 d4 5d d9 bf 77 69 85 de 1c ec cb 3f
       -0.39635193442167055 0.21814308991708817
0000b0 f0 45 eb 44 af f0 db bf b1 71 9b 1c 07 f7 bb 3f
       -0.43656522493719674 0.10923809479158454
0000c0 2f ef c6 9c f6 4b e4 bf 7d b9 b9 3c 79 20 ee 3f
       -0.6342728673984989 0.9414640604061756
0000d0 34 93 26 6a e9 59 a6 bf 2f 1a 16 c6 24 04 e7 bf
       -0.04365472241196358 -0.7192558163522501

weight_2 f8 [10, 28]
000000 17 d9 eb 8e 42 83 f4 bf cb 6c 88 25 06 2c de bf
       -1.2820458968031454 -0.47143701234172103
000010 3b 87 bd 09 54 de fb 3f 4b 1b 79 00 22 a7 a1 3f
       1.7417793636781898 0.03447824722075284
000020 d4 a0 09 ca 3d f1 f1 3f a1 98 aa 00 e9 42 d7 bf
       1.1213968174070503 -0.36345887246205605
000030 ba ee fa db 2b 63 06 40 eb 99 a6 f6 4d b4 e2 3f
       2.7984234987214593 0.5845098321340719
000040 8a 6f 53 cc e3 d2 00 c0 83 05 4b c1 90 48 e1 bf
       -2.1029735529863887 -0.5401080870871485
000050 aa 4b 52 04 32 0a c3 bf ec 5f 75 87 fa c1 eb bf
       -0.14874863825806744 -0.8674290319131592
000060 b6 c6 cf 86 df 15 bc 3f ab a7 13 52 f0 72 b7 bf
       0.10970875779437503 -0.09159757617785995
000070 4b b2 75 c7 b5 82 fe bf 11 0c 90 97 1b 28 f9 bf
       -1.9069116393467478 -1.5722919388215397
000080 4a 92 7f 89 f4 b8 06 c0 88 75 3b 4c 99 d1 f5 bf
       -2.8403101675087656 -1.3636715867827167
000090 99 41 b5 57 07 3a 00 c0 3a 18 63 0b 0b e9 f4 3f
       -2.0283343174161925 1.3068952984626905
0000a0 10 4f 3e 3c 59 33 b8 3f 3e cb 30 72 67 2a f2 bf
       0.09453351708208069 -1.1353525600977288
0000b0 f5 69 87 dc a6 66 03 40 ee fe db 04 af a6 02 40
       2.4251229504418412 2.3313885097157856
0000c0 45 82 63 b3 50 16 05 c0 bf 87 90 24 df d7 d6 3f
       -2.635896111940641 0.35692575999030035
0000d0 2f e2 82 72 92 bc b9 bf 04 71 15 ed 2d 40 e9 3f
       -0.10053363128361846 0.7890843992750267
0000e0 46 f0 83 17 d0 55 e5 bf 9c c2 e2 61 14 72 fe bf
       -0.6667252024922241 -1.9028514693892822
0000f0 19 c2 a3 5c ff 8d ec bf 21 35 c7 b5 d5 34 ec bf
       -0.8923336800926932 -0.8814495611528949
000100 74 9b 43 a5 80 d2 f2 bf 52 82 9c c0 d7 53 fc 3f
       -1.176392217219214 1.7704694293862713
000110 bc 2d 4c 6f 40 55 02 c0 7b 32 7f 50 f2 aa d1 bf
       -2.2916268057940368 -0.2760587488271892
000120 07 5b e5 fd ff 45 00 40 ca 11 49 0f 92 92 f0 3f
       2.034179671823384 1.0357838246428508
000130 40 c2 e8 fc 08 f6 de bf 5e 59 a7 38 b1 0b f1 bf
       -0.48376679132619316 -1.0653545582805104
000140 44 eb 7e 94 c5 20 f7 3f d0 a8 ab aa 83 55 f0 bf
       1.4455009270302108 -1.0208775202577733
000150 de 4f d0 8e 6d 0b cf 3f b0 8a a0 00 c4 93 f1 3f
       0.24253625367475612 1.0985755943772055
000160 e9 51 48 a1 5a a3 81 3f fe c7 4b 8b 69 29 df 3f
       0.008612354323340692 0.486902605086584
000170 64 b0 4a ec 74 ad f7 3f 12 8b 39 cf b9 f0 fb 3f
       1.479847834601082 1.7462709517209913
000180 44 0c 31 02 3b 73 f8 bf 6e 72 f9 24 a0 30 01 c0
       -1.5281324468239896 -2.1487429512620144
000190 a2 60 93 d1 ed 9a cf 3f 26 e4 29 2f b3 31 d6 3f
       0.24691555722416064 0.3467834435064695
0001a0 c8 02 48 0c 42 23 f4 3f c3 d0 4e 23 27 0f f5 3f
       1.2586079101312624 1.3161994342054164
0001b0 d0 94 ae f3 5f fa 0c 40 2a ab da b1 cf 10 f5 bf
       3.6222533261921868 -1.316604323141926
0001c0 97 a5 40 01 c9 7f bf 3f 54 c1 a3 8f c0 95 fa 3f
       0.12304359703616395 1.6615605936932143
0001d0 fc ba 1e 8a 2b bf e7 3f 7e 77 68 f5 d6 1e 9a 3f
       0.7420861909539265 0.02550826905109415
0001e0 33 d3 57 ee 21 7e 0b c0 ca 15 2c 89 21 57 e1 3f
       -3.4365881557991087 0.5418861083168676
0001f0 d4 b3 14 b1 b6 52 e4 bf 94 2f 2b d2 4f 68 00 40
       -0.6350968798266146 2.0509334964207913
000200 87 f4 8a 56 43 36 f8 3f 5e 5f 95 e1 c5 ae f1 bf
       1.513247812326229 -1.1051691829543056
000210 b0 01 58 09 60 16 10 c0 23 b8 07 6c d2 c0 d0 bf
       -4.021850725170609 -0.261768918512532
000220 79 bc 6b da 43 5c f3 bf 29 65 3c 23 b2 1b 01 40
       -1.2100256473602526 2.138523364334692
000230 d7 d5 d5 25 3a a5 fb 3f e9 48 37 13 81 39 0a c0
       1.727838657182806 -3.2780782223936638
000240 af 7a a5 14 62 af e8 3f d5 3b 20 c7 ca a4 cc 3f
       0.7714090731859268 0.22377905581421823
000250 7f a6 c2 81 fc 8c d0 bf ae e6 70 3f d7 6f d5 3f
       -0.25860512420567966 0.3349512214223108
000260 80 49 9a 2b 31 e0 09 40 3b 97 20 32 13 77 ff bf
       3.2344687849483194 -1.9665710409257844
000270 b0 a0 2a 22 a2 c8 d7 bf fa 8d 02 59 4e c2 eb 3f
       -0.3716206868798606 0.8674689997173453
000280 9d c6 be 2c c9 95 f7 bf 7b 29 f9 25 20 d5 e2 3f
       -1.4740688083515245 0.5885163060823254
000290 a2 ba d9 1f c7 55 f2 3f c8 3b 95 4d 8c 2a ef 3f
       1.1459418529663385 0.9739438548366417
0002a0 5b 5e 06 a0 0d 94 bd 3f 9b 68 45 9f c5 67 e2 bf
       0.11554036290032725 -0.5751674757732589
0002b0 d1 85 8e e0 84 bd e1 3f d6 d4 19 22 e3 00 d3 3f
       0.5543846498368855 0.29692915277639764
0002c0 c8 15 81 d2 ed cc 01 c0 8b 71 3d 6b ba b4 06 c0
       -2.2250629850047723 -2.838246190846069
0002d0 30 eb f8 0b b3 7c fa bf 06 79 1f 7f e3 82 f8 3f
       -1.6554441898030738 1.5319552388896809
0002e0 28 d7 ef 7d b5 1b fe 3f 2b fb f6 20 ab 88 03 c0
       1.8817648810776948 -2.441732652222887
0002f0 ee 01 54 cf 86 4a d7 bf be f5 25 db f2 87 f5 3f
       -0.3639237427414902 1.3456905899505354
000300 06 b4 72 af ac 2e fc bf f7 34 c4 d1 47 8b f3 bf
       -1.7613951543273756 -1.2215040391923233
000310 e1 d0 7d b3 3f fa c9 3f 23 ea 08 2d 96 1e 04 40
       0.20294948829871998 2.5149348753304976
000320 ff e3 f9 d0 28 d5 eb 3f ba 43 b9 77 4e d0 f2 3f
       0.8697704392972126 1.1758560826021793
000330 d4 6b 9f 5a f1 c5 01 40 68 91 45 be 9d 40 d9 bf
       2.221651752462529 -0.394568858921295
000340 c4 e8 4d 24 47 f1 ea bf 9d 1d 66 f5 59 1c fd 3f
       -0.8419528683728221 1.819421728696262
000350 95 09 1a 74 06 0d dc 3f 93 2b 81 61 6a 13 fb 3f
       0.4382949956708669 1.692240124585372
000360 2c 00 ea ac 8f 15 fb 3f b5 46 4b 41 e3 e5 e4 bf
       1.6927639727073354 -0.6530624652170532
000370 a8 ae c7 a8 1a e8 fe bf 58 86 72 35 9d 8d d7 3f
       -1.931666049286756 0.3680184385249041
000380 f0 53 bc bf 11 52 eb 3f da 26 0b ac a7 a7 c2 bf
       0.8537682289921786 -0.14574142361225634
000390 6f 37 99 e0 dd ab f8 3f e4 13 10 e5 76 42 f9 3f
       1.5419596455935467 1.5787266681447756
0003a0 3d 56 40 06 71 01 f5 3f 89 17 68 3a 12 c9 b9 bf
       1.3128519291107204 -0.10072435308401685
0003b0 39 4c 3f 03 9c b9 f2 3f 9f c3 85 42 70 54 01 c0
       1.1703148009153337 -2.1662297436782434
0003c0 92 f9 f1 86 57 4e f6 bf 65 28 3d 9e 30 29 e4 bf
       -1.3941264411256253 -0.6300280657390088
0003d0 f5 02 ed 00 c6 49 cc 3f 9d d9 be 87 b8 d4 fe 3f
       0.22100138707357755 1.9269337942656428
0003e0 4f 54 a2 e5 af e6 e6 bf 0a 27 d5 5d fc 84 06 40
       -0.715660046104526 2.8149344759630184
0003f0 8c 13 63 68 3c 43 d2 3f 0f 4b 52 51 06 9c f9 3f
       0.28535375780148153 1.6005919624919362
000400 27 b8 cb dd 55 05 f3 3f b7 a7 7a c3 b1 88 f8 bf
       1.1888025916955571 -1.5333726535704792
000410 dc 12 d5 52 af 7e f8 bf 75 5a 92 68 e6 aa ea bf
       -1.5309289203298055 -0.833361820451343
000420 d0 b6 e9 e7 58 28 01 40 7c 7b ba 92 1b 86 e9 3f
       2.1447008245657813 0.797620569781301
000430 69 f3 e1 d9 d7 9a eb bf 1e 5c 66 6c 0d 4b 02 c0
       -0.8626517539520197 -2.2866466969239942
000440 08 b0 f6 05 40 91 e7 3f b1 a9 5b fe f7 f2 fc bf
       0.7364807239987394 -1.8093185363637583
000450 a2 89 27 e5 36 09 fe 3f 32 9b 47 c2 9e ea 03 c0
       1.8772496177049125 -2.489560621080636
000460 1e f3 6c dd c6 b7 d1 bf 89 46 af 0a 5d eb d4 bf
       -0.2768418466910577 -0.32686544459748085
000470 6e ec 3b d7 e5 74 f4 3f c7 15 01 d0 33 7a 05 40
       1.2785395057278737 2.6846691370326172
000480 51 83 a2 f2 cf b9 01 40 38 69 45 a6 82 e1 f5 bf
       2.215728660187246 -1.3675562376943855
000490 e4 8a c2 17 4c a4 00 c0 29 fc ce 23 71 65 f4 bf
       -2.0802232605213806 -1.2747661017199425
0004a0 5c 10 fe 57 e6 62 f1 bf 90 53 ff c3 bf f5 ee 3f
       -1.0866454541401458 0.9674986675332651
0004b0 82 05 8a 6e a3 6d c7 bf b0 30 4f 9f 0f 82 db bf
       -0.18303339860362305 -0.4298132949595681
0004c0 16 99 12 86 20 2c 0a 40 01 8b 2a b2 65 83 ce 3f
       3.271546409075323 0.238384925837714
0004d0 9b b1 19 15 7d 1b 0a c0 31 a6 ea 30 00 95 00 40
       -3.2634221695390813 2.0727542707070588
0004e0 bf 47 39 e5 78 39 c7 3f 41 2c 55 db 50 24 f5 3f
       0.18144141380849807 1.3213661735233162
0004f0 07 dd ff a2 1e e3 03 40 c1 c6 8d 81 06 0f d1 bf
       2.4858982786496457 -0.2665420785116162
000500 c7 8f f1 c9 dc ab f0 bf a9 90 41 0f b4 83 01 40
       -1.0419586075231437 2.18930828017081
000510 af a4 4b ed d7 f3 ca bf 06 e3 c7 42 a2 68 00 c0
       -0.21056651198094786 -2.051090738034307
000520 3f f3 64 7f 8a 26 b2 3f ee 1f 77 71 7e 3e 08 40
       0.0709005890866594 3.0305146088103276
000530 77 dc 23 3c af b7 0c c0 12 3b ec 2c e1 ad ce bf
       -3.589689702839276 -0.2396813840245718
000540 f8 96 32 89 68 2a dc bf 60 88 4a 40 21 6a fe bf
       -0.4400883998699636 -1.9009106170056143
000550 5b aa 42 8f d6 94 f8 bf 12 cc 70 fd ba 83 fe bf
       -1.5363374324903336 -1.9071607494377116
000560 03 24 a9 25 ff 48 f6 3f d8 24 3c 51 44 19 04 40
       1.3928214522477453 2.512337336204478
000570 6a db fa cf 4f ae e4 bf 83 4c d2 99 c4 e5 db 3f
       -0.6462782919032695 0.43589892408017067
000580 5c 31 6b 8b 11 cd 01 c0 d3 47 72 b2 67 1e 05 40
       -2.225131119927182 2.639846223938528
000590 81 54 e9 cc 5f 2f e7 3f 95 85 c3 4e 85 79 02 c0
       0.7245329858948396 -2.309336295453884
0005a0 35 bf c4 8e ca 95 f5 bf af 36 5a 24 b8 81 a5 bf
       -1.3490701271911807 -0.04200530475382657
0005b0 04 d5 74 7a 4e 13 d3 3f 4b 4b b6 e8 28 a5 03 c0
       0.2980533786643067 -2.455644434035468
0005c0 01 de 6c 88 28 5e 01 40 b7 83 a3 a6 38 d7 d0 bf
       2.1709757478927263 -0.2631360652285894
0005d0 e7 c1 5c 25 3c e4 e2 3f 1c 15 08 56 37 68 04 40
       0.5903607110722618 2.5508867951599665
0005e0 8a c4 fc e6 dc d2 f5 3f eb fe f0 d6 6e a4 c2 bf
       1.3639802000946326 -0.14564309592423483
0005f0 30 f7 91 23 de a3 f7 3f ea c5 c7 dd ea bc f5 bf
       1.4775067700824813 -1.3586224234862763
000600 a4 53 f9 06 41 1f 03 c0 94 6d 6d cd e8 f2 e0 3f
       -2.390260748370979 0.5296520244841525
000610 fb 2d f8 8b 40 73 f9 bf ea 17 5f fe da 63 fe bf
       -1.5906377284580901 -1.8993787704835037
000620 47 3b 21 6b 91 3a 06 c0 9f 34 e0 45 aa 78 fc 3f
       -2.778597676231047 1.7794592599414398
000630 60 81 a0 c3 f3 42 c7 3f c5 e0 91 c6 a9 de e5 bf
       0.18173071910951943 -0.6834305647198781
000640 eb 0e b3 d0 eb 1d e0 3f b3 70 6f 5e 1d 95 e7 bf
       0.5036524845276892 -0.7369524807395663
000650 09 02 dd a5 2f 47 f1 bf 14 b4 b3 41 cf 80 ee bf
       -1.0798794249568593 -0.9532238276711973
000660 2a c7 e0 7d 36 33 00 40 b7 86 7c 9a 5e 57 d8 3f
       2.025006278440647 0.3803326138168858
000670 14 0b b0 0e d7 d4 f0 bf 96 66 05 68 29 9d 14 40
       -1.0519629071938583 5.153478265123018
000680 cd 3e b1 89 5a f7 f5 3f ff f5 f1 df f9 4f f0 bf
       1.3728890780075063 -1.0195254085405165
000690 ef a1 e4 b7 f0 06 fc 3f fd 8a 39 fd 73 68 00 c0
       1.7516944106411036 -2.051002481764384
0006a0 bb b4 21 18 40 32 df 3f f2 24 82 ec f3 3a 03 c0
       0.4874420390759259 -2.4037855603424925
0006b0 55 4b 02 8d 74 d9 eb bf 6f 85 03 d1 bb 62 f0 bf
       -0.8702948335725106 -1.024104896984081
0006c0 66 b5 2b bb a2 71 ee bf c5 f0 c0 a9 eb 5b fa 3f
       -0.9513715415647936 1.6474415427210698
0006d0 89 78 70 3c 82 34 f3 bf 0f 9f 0f 51 5c d3 e5 3f
       -1.2003195153152169 0.6820508559439719
0006e0 00 06 6d 3b f2 a2 c2 3f 25 c6 da ae e5 bf ef 3f
       0.14559772397664972 0.9921749510887748
0006f0 79 06 14 ad 9d ed e5 3f 5d 7a ee e5 b6 03 ed 3f
       0.6852558498796518 0.9067034235811878
000700 00 71 3b e5 1d 28 06 40 f1 aa 4d b4 a9 d3 04 40
       2.769588271023281 2.6033510290338815
000710 13 bf 3a f3 36 20 af 3f 8e 39 45 1e 57 9c f8 bf
       0.0607926532660469 -1.53816901993159
000720 a7 58 86 07 75 d0 fd bf 07 55 35 a4 28 c0 e9 3f
       -1.8633928579270476 0.804706879348175
000730 d8 ac 89 91 d2 f7 e6 3f 70 a9 0c 84 65 a9 f1 3f
       0.717751774075988 1.1038565786535308
000740 f9 1c e1 cf eb b5 f5 bf 5e 36 59 1d e8 b4 c3 3f
       -1.356914341000275 0.15395833428412947
000750 0f c2 22 0e a3 85 08 40 6e 24 cc 83 d5 cf 0a c0
       3.065252409396869 -3.3514814659761702
000760 e5 a9 4a f3 32 20 d7 bf 75 ae 24 93 e4 8b 08 c0
       -0.3613402725119655 -3.0683070655412004
000770 7d a8 a9 4d 3d 65 e8 bf b6 e3 5f d4 99 39 f6 bf
       -0.7623583332872524 -1.3890627189523292
000780 c8 48 39 5b 4a e1 bf bf 65 b6 49 d0 79 43 d8 3f
       -0.12453140952246422 0.37911839810008124
000790 81 d0 42 88 37 e3 c4 3f 9d 11 67 21 1a 9a f5 bf
       0.16318411019677018 -1.3501225762166549
0007a0 79 5f ce be 02 d7 c6 3f fc 3c bd e5 07 94 d8 3f
       0.17843660656648888 0.38403508601636793
0007b0 1b ff 73 c6 e8 72 00 c0 91 75 a9 16 33 cf dd bf
       -2.0561080459737133 -0.46577145779686996
0007c0 8a 90 cd 7c 26 2b fa 3f 0a 58 c2 49 bd 3f 05 c0
       1.6355347514263792 -2.656122757190137
0007d0 a0 f8 be d7 bb f9 f6 bf e1 52 38 1a 53 69 f3 3f
       -1.4359701564385787 1.2132140182704279
0007e0 94 ad e7 96 14 8d f0 3f 55 bd e2 2f 0b 96 00 c0
       1.034443463776232 -2.0732635251112392
0007f0 fa 1e f3 8b 0d f0 04 c0 7e 0a 51 07 68 0d 8e 3f
       -2.617213338238682 0.014674008105548749

bias_2 f8 [10, 1]
000000 fb 41 f8 33 79 a5 de 3f 83 ff 69 22 2d 2c e3 3f
       0.478849697829929 0.5991426155232918
000010 c4 52 a6 cc 2f 9a b2 3f 25 9b 4a 9a eb 35 d2 bf
       0.07266520258265091 -0.2845410353424305
000020 07 9f 93 0c 24 f3 b3 bf 9b ff d0 2f 41 86 e0 3f
       -0.07792878443762784 0.5163885053552691
000030 60 96 8d e4 67 d3 e4 bf 92 80 77 0e 38 d7 f2 3f
       -0.6508063758780729 1.1775436940297692
000040 1a f3 be 46 a6 2c ea bf f2 51 5b 44 bc 36 f0 bf
       -0.8179503804927635 -1.013363139170107
