cnn_model/weight/weights_sigmoid.npz (npz, 179166 bytes, 4 tensors)

weight_1 f8 [28, 784]
000000 f0 be c8 14 05 f8 a5 bf b0 21 15 68 56 70 a0 bf
       -0.04290786627495702 -0.03210706730402835
000010 20 bf ec e5 a0 fb a3 3f 02 96 ee 96 88 ac d6 3f
       0.03902914816569436 0.3542806123681147
000020 1c 38 26 c0 9f f2 c8 3f 00 61 04 74 e3 6c c0 3f
       0.19490429765977602 0.12832301297090254
000030 36 68 4e af 0b d1 d7 bf 54 dd 43 67 78 11 d2 bf
       -0.37213413352731395 -0.2823163040588572
000040 f8 44 f9 d0 40 5a bb 3f 40 8f bd dd ad 0b ab 3f
       0.10684590436837371 0.05282347995560466
000050 b2 03 ab e0 f3 6b d9 3f d4 21 f6 62 05 23 d4 bf
       0.3972139066718753 -0.31463751472668133
000060 5a 3b ff 17 3e 0d d8 3f 5c 5e bc c5 13 8d d7 3f
       0.37580826133210155 0.36798567114008107
000070 c6 36 d6 4c 02 d3 cd 3f fd c4 ba 47 74 a9 be 3f
       0.23300198318286486 0.119773166191198
000080 36 1c 7a b2 35 bb d1 3f 30 74 7a 90 74 8b a3 bf
       0.277051376623095 -0.03817333472873263
000090 48 e2 0a 8e bd 12 c2 3f 32 ea 72 a1 40 64 df bf
       0.14119691310567561 -0.4904939247750547
0000a0 40 72 f1 50 c4 43 a7 3f 80 d6 ac ac 1a 6a a9 bf
       0.045438895111804545 -0.04963763578272751
0000b0 c4 6c 17 79 df ba dd 3f 1c 6a 76 0d b6 40 c9 3f
       0.46453081918089034 0.19728732735968968
0000c0 80 5f be c3 35 3d 96 3f 34 c7 70 79 99 d6 c1 3f
       0.021717872688526096 0.13936155729020927
0000d0 70 20 c0 eb 35 f3 d6 bf f2 15 6c d3 b9 cb d7 3f
       -0.3585943987132003 0.3718094410581606
0000e0 4a a0 49 a5 76 3f d8 3f a2 4a 2b 82 9e 49 d6 bf
       0.3788735021721591 -0.34824335777117643
0000f0 d4 94 35 3f 3b 75 c8 bf 90 fb 72 f6 37 a8 dd bf
       -0.19107761942283352 -0.46339224879550844
000100 68 6d ae 28 58 28 ac 3f b6 d2 80 89 ba fe d4 bf
       0.054995303121553374 -0.3280474036030613
000110 37 c3 02 9c 15 e6 d4 bf 9e 24 3c 29 25 6b c1 3f
       -0.3265432380240329 0.1360823108046007
000120 54 2c 9e cc 88 bf c7 bf d5 61 bd 87 8d 95 c7 bf
       -0.1855326651678718 -0.18425149085920958
000130 28 3b c8 4a 28 1e be 3f 34 40 fa a9 fc 41 b0 3f
       0.11764766526924275 0.06350688123552645
000140 5b 10 0c 12 21 d8 df bf f0 bf 64 02 2c 4a d5 bf
       -0.49756647837080487 -0.3326520942091511
000150 91 69 77 29 a7 0f d0 3f 53 c9 42 94 08 15 dc 3f
       0.2509553818651052 0.43878378370859145
000160 f5 e1 71 1a 12 fe d4 3f 23 77 f7 c6 13 8b 69 3f
       0.3280072458506134 0.0031180750154210664
000170 9d b0 b8 ea bd c1 dc 3f 9f 5d d4 51 e4 c9 cb 3f
       0.4493250648690806 0.21709875102599782
000180 0c 9f 4b 59 96 6f c4 bf 8f 04 58 1d 0a c0 d0 3f
       -0.1596553741467165 0.2617211615143526
000190 da f2 7b ca c5 29 dd bf ab a4 28 ff 8e 67 90 bf
       -0.4556745984444156 -0.016020044635443636
0001a0 a4 6c e5 69 29 a5 d8 bf ac 90 ae b1 23 fd c5 bf
       -0.3850806745665045 -0.17178770233033924
0001b0 8e 1b b6 30 8c 59 d4 3f 2e e8 3a a6 6e 4f dc 3f
       0.3179655528733115 0.4423481582013008
0001c0 4c 58 48 22 42 5e de bf 58 6e a3 5e 79 86 c8 bf
       -0.4745030722418775 -0.19160382386222596
0001d0 20 8a 60 aa a3 0b cb 3f 9d 8f 78 72 95 b6 ce 3f
       0.21129270381159504 0.23994701470757898
0001e0 0a bc 07 9a 85 12 af 3f 39 e2 a1 c8 db 7f d8 bf
       0.06068818574191688 -0.38280386536601757
0001f0 5f 58 c6 a5 9e ea d5 bf 36 9d d7 29 bc f2 c7 3f
       -0.3424450510877985 0.1870951847369981
000200 11 e2 14 5d ac 1b c5 bf a7 5a ed 51 76 4f db bf
       -0.16490702195166354 -0.42672498703670175
000210 ae 50 02 86 b5 ef cc 3f 4d cc 40 09 3e f6 ca 3f
       0.22606534045610743 0.2106397195035207
000220 9a b4 11 34 c5 3b b1 3f a8 82 6a c3 1d 0f e0 3f
       0.06731827279300476 0.501845246955857
000230 85 0a 79 da 81 52 cb 3f 74 01 eb d0 0e 11 c0 bf
       0.21345542113893515 -0.1255205650431993
000240 a2 db b5 f0 6a 83 e1 3f 3a 4d 88 d8 db 7a cc 3f
       0.547292204034296 0.22249935219643097
000250 31 2a 19 51 01 7f be bf 38 95 60 0f 49 11 be bf
       -0.11912544469775167 -0.11745125413343238
000260 da cd 27 69 86 1e c3 3f f5 45 77 cf 4b a0 b1 3f
       0.14936905035538822 0.0688521749027798
000270 a6 40 40 66 1e c1 b8 bf 78 e8 67 5e 69 4a 93 bf
       -0.09669675823556875 -0.018838545214727692
000280 12 7b 60 17 28 43 a9 3f 5d 42 af ca 4f 1f b9 3f
       0.04934048924791602 0.09813402841906212
000290 a0 8f fb ee 0e c9 bb 3f 60 14 e4 de a0 a7 c9 bf
       0.10853665670907597 -0.20042811282488326
0002a0 c8 2e 27 90 63 ed d4 bf 96 42 ce 2f 5f 73 d9 3f
       -0.3269890697235778 0.39766673725629553
0002b0 09 e0 0c ef 0f 39 d5 bf 5c 7c 2d 87 68 1c db 3f
       -0.33160780281787133 0.42360890580125043
0002c0 d6 95 34 60 3f a3 de bf 14 61 b7 4a b7 9f da bf
       -0.47871384043750476 -0.4159982900287258
0002d0 dc d8 39 3b b4 55 cb bf fd 9b 47 82 7e 0f 93 3f
       -0.21355297939198337 0.018613793088572795
0002e0 30 4c e1 7b 06 63 c8 3f 22 1f 53 51 b8 8d ba 3f
       0.1905220131762646 0.10372497544733197
0002f0 a3 cc 0f 67 50 33 c7 bf 3b e9 7f 32 9a db de 3f
       -0.18125348121939053 0.4821534627113981
000300 33 7b 9d b4 66 ee de 3f b0 69 63 bb ca f9 94 bf
       0.48330085409354523 -0.020484130561138236
000310 58 2c 94 73 d6 9e c4 3f 0e ea b5 41 6f 6d d0 bf
       0.16109734195228742 -0.2566793576912979
000320 eb a7 0b 5f a0 09 d4 3f e0 56 9b 0d 42 82 c5 bf
       0.31308755189695486 -0.16803765930551773
000330 92 fb a2 09 06 f2 d0 3f df d2 b4 f4 9e 25 cc bf
       0.2647719472988054 -0.21989809940864455
000340 50 f5 60 2b 66 4c 52 bf 2d 15 7c c9 ed f6 de bf
       -0.0011168477772252779 -0.48382134128799487
000350 ac f4 31 dd 71 98 c7 bf aa c6 a0 b9 13 22 b5 3f
       -0.1843397455267327 0.08255122453626976
000360 b5 28 8a c3 ed 96 dc bf 71 48 31 ae 2e ca d6 bf
       -0.4467119607512687 -0.35609023104655707
000370 56 99 6f ac 64 e7 dc 3f a8 d9 a8 94 39 aa d0 bf
       0.4516231235451377 -0.26038970487152335
000380 60 3b 93 70 cf 3e c2 3f 0d 8f d9 33 c2 87 db 3f
       0.14254181858856452 0.4301610475870213
000390 0d 82 d0 66 da 68 cb bf 9e a4 29 0e 4c 48 b7 3f
       -0.21413736362684724 0.09094691606300606
0003a0 ac d0 28 5d c8 1e d0 3f 5a 87 f2 ed 46 cc c8 3f
       0.2518788251648043 0.1937340413906508
0003b0 1d 9f 1d a3 3a 40 c4 3f 93 c6 9d b9 1d c4 d0 3f
       0.15821011509546504 0.26196997763245483
0003c0 77 70 4a 34 d0 0c da bf 00 8c 93 bb ec 35 d5 bf
       -0.40703206163903566 -0.3314163047600118
0003d0 48 2e ed e2 5d 0a d5 3f 5a d7 4b d1 55 e4 c8 bf
       0.328757735832117 -0.19446823806327523
0003e0 3a 74 51 43 c2 2b b0 bf 61 fa 44 7b d6 17 a0 3f
       -0.06316770690450904 0.031431868121661884
0003f0 11 57 02 64 ba 03 d7 3f 67 3b a3 bc 10 cd bf bf
       0.3596025444652336 -0.12422279935274859
000400 ed b0 d3 1e 0b d0 c5 3f d1 48 4c fa 0b 8d c3 bf
       0.17041148190708758 -0.15274190637189247
000410 ec dc 6c b5 bd 7c c5 3f 80 34 f5 af 01 fb da bf
       0.1678692947259387 -0.42157022651083054
000420 89 28 e6 03 b7 d0 b0 3f b6 ed 3f 12 2c 35 d1 3f
       0.06568473668281362 0.26887037069510755
000430 d0 20 f8 f8 93 f2 d3 3f e8 60 9b 64 63 e7 c9 3f
       0.31168078721431147 0.20237390911530118
000440 1b 6f 8b 1c 67 9f d7 bf 6b 99 75 31 f7 e6 dd bf
       -0.3691041735416875 -0.46722202138916796
000450 b2 c2 f7 e4 11 f3 d0 3f 42 a6 dd 9f 8e b6 c7 3f
       0.2648358093274893 0.18525870138118888
000460 2e 3b da 9b 72 da dd bf 40 f2 33 d9 4c bb b3 3f
       -0.466457988929437 0.07707672407918498
000470 75 89 c5 e9 bd 66 c5 bf 64 6f 6e 9b e5 0f d9 bf
       -0.16719793238287264 -0.39159526995512395
000480 12 74 89 20 c7 87 ce bf b0 e7 9e b5 30 37 d1 bf
       -0.23851861084668308 -0.268993546833026
000490 3e 2c 1e 59 d6 72 b5 bf 45 10 5c 10 d6 f3 ca 3f
       -0.08378352809647624 0.2105662898903821
0004a0 2e 57 f9 3f 87 a8 d9 bf 1c 27 e0 7d 1a a2 54 bf
       -0.40091115233859653 -0.0012593516071341465
0004b0 39 45 ed 1d bc 72 ba 3f 16 ce 54 2b 48 b9 e3 3f
       0.10331321459422761 0.6163674207986698
0004c0 0c 72 03 42 41 52 c4 3f 05 65 bd 28 0a ad e0 3f
       0.15876022074998308 0.5211230083179151
0004d0 4c e8 35 44 bf 34 cc 3f e1 26 68 01 1d 13 e0 3f
       0.22035971479982874 0.5023331668355376
0004e0 86 b9 e1 07 36 e9 e1 3f cc 40 4b 34 c3 cd d8 3f
       0.5597181466999224 0.3875587473567179
0004f0 0e 12 e1 ea 48 11 b2 3f ba eb 5c 62 72 57 c4 3f
       0.0705762456355574 0.1589186649597119
000500 6b 9e 14 98 78 6b c1 bf f9 5a 38 1c 54 b5 b2 bf
       -0.13609225679214218 -0.07307935418098656
000510 f3 51 08 3b c4 7e d2 bf 82 7b 63 92 f9 15 b5 3f
       -0.2889872147073042 0.08236656021061431
000520 b5 63 6e 48 a7 6d d7 3f 01 65 f6 b2 ff e2 9e bf
       0.3660677153907799 -0.030162806795122957
000530 51 c9 55 9a 88 d0 b2 3f 44 59 a1 43 c1 e0 cc bf
       0.07349447029063085 -0.22560897638568111
000540 28 7f 1d 55 f8 4b c0 3f 69 76 d3 9b 31 f2 d4 3f
       0.1273184218980472 0.3272823354471713
000550 e2 d7 39 4d 75 c5 a3 bf 91 cd 3f a9 00 75 74 bf
       -0.038615861584659475 -0.004994394857919985
000560 01 12 b8 54 d4 25 a5 3f 6f 3e 4f 55 f3 8c c5 bf
       0.04130424055259497 -0.16836396852021404
000570 d3 78 c9 02 51 ed d0 3f 6b f5 dd 16 c0 5e cb bf
       0.26448464653175313 -0.21382905117563253
000580 01 ed ab 0c 14 97 e0 3f 4e d2 75 f4 95 43 e0 3f
       0.5184421775333307 0.5082502150167529
000590 0e 19 97 e1 fd 34 c8 3f 78 fe fa 1c 19 48 cc 3f
       0.18911717906139142 0.22095025935231027
0005a0 58 d3 5b dd 87 c3 e3 3f c3 cf 7e 63 95 03 e6 3f
       0.6176184962665543 0.6879374449986176
0005b0 2a a2 1d 41 92 ef e6 3f c7 e7 15 05 ce ef e0 3f
       0.7167445442001441 0.5292730426146982
0005c0 ea e4 7f 02 1b f1 d3 3f 97 59 40 3e bf fb eb 3f
       0.31159091228580726 0.8744808402869236
0005d0 2f 06 33 a0 53 0e e3 3f 43 78 57 5a ed 7e df 3f
       0.5954988602536043 0.49212201902799196
0005e0 6e f6 81 c1 6b 99 e6 3f f0 76 b0 ed e3 72 e9 3f
       0.706228139824544 0.7952747003907614
0005f0 52 2f 0f b1 c7 e5 c3 3f b5 c6 62 f1 6f 01 b7 3f
       0.15544983048891453 0.08986568110665412
000600 a9 f8 bc 0a 6a b9 d3 bf c1 0e da 8e 67 b1 d6 3f
       -0.3081917862763342 0.3545779128109921
000610 47 0e 43 1f 2e 0e e0 3f 30 61 c4 b1 91 5e d7 3f
       0.5017309771141719 0.3651470409399904
000620 36 04 0f 87 9f d3 da 3f d6 f3 46 d6 1f bc dc 3f
       0.41916645230600424 0.44898219991210675
000630 d4 2b bc 81 d6 69 dc 3f e4 b3 b8 c3 11 c0 cd bf
       0.4439598338073527 -0.23242399269784564
000640 fb 33 8b 8f e7 40 c3 3f f7 85 e1 26 4c 67 b3 bf
       0.15041822918865919 -0.07579494427911714
000650 af e5 99 e7 f2 ee d1 bf 5a b2 75 92 52 2e c7 3f
       -0.28020928017903207 0.18110115195613014
000660 17 b1 b7 c1 06 18 b2 3f a6 90 34 ee 2d 55 e4 3f
       0.07067911366874956 0.6353978779266256
000670 63 31 f0 08 7a 10 e3 3f 8a 4c 88 76 a8 eb e3 3f
       0.5957613157820955 0.6225168528639113
000680 94 3b 2b 02 8f e6 f3 3f 74 a4 54 40 1b dd ed 3f
       1.2437887272569457 0.9332405334909155
000690 cf e9 da ee 10 83 ed 3f 70 73 d4 cc 02 3a eb 3f
       0.9222492852343808 0.8508314133247108
0006a0 46 69 29 a2 28 3e f1 3f ad 19 17 92 1c f1 d9 3f
       1.0776754698222972 0.4053412844335991
0006b0 b0 fc 44 95 8f 1e ec 3f 3b ef 58 74 a2 22 dc 3f
       0.8787305751246972 0.4396139274792749
0006c0 1c f7 cd 98 0a ae c1 3f e2 b9 24 d1 c7 f4 c4 3f
       0.13812382184180982 0.16372010910113405
0006d0 13 78 50 72 a0 34 a6 bf a3 f5 78 e8 3a 9d b2 3f
       -0.0433702601951468 0.07271164107893084
0006e0 1d ce c1 f5 5d 31 d8 3f ec d8 d9 1c 82 66 d0 bf
       0.3780131244631962 -0.25625660722233934
0006f0 3f 42 22 ba 0c 71 d3 bf f4 b1 25 58 1e 6b c2 3f
       -0.3037750070298308 0.14389399818482185
000700 b0 e9 8f 40 1b ac d6 3f 7f eb c9 24 b7 f5 d5 bf
       0.3542545443048324 -0.3431222781434186
000710 68 7a 1a 8d 27 77 88 bf 49 13 b3 d9 14 58 c0 3f
       -0.011946019166598279 0.1276880324350265
000720 bc 3d 7a 26 f6 d9 df bf e7 ac 58 0d 6b cd d2 bf
       -0.49767831571167753 -0.29378773024900656
000730 ec 32 2b 71 aa 8b c8 3f 1c 8f 3f 7c 3c c1 cb 3f
       0.19176226163690246 0.21683460299311086
000740 44 49 aa e7 49 a6 cb 3f 44 d6 22 28 d2 a9 dc 3f
       0.21601222812439336 0.4478650466875005
000750 04 74 90 39 12 c4 e6 3f 62 49 a9 37 cb 3f e8 3f
       0.7114344715406564 0.7577873313078209
000760 c7 d1 1c 65 e2 00 e2 3f 93 e5 b5 e4 24 86 f2 3f
       0.562607953534603 1.1577500280385251
000770 40 76 37 3d 83 56 f7 3f 8c 05 d3 a2 41 69 f0 3f
       1.4586212531352345 1.0256973610233642
000780 10 8e 02 da 64 10 f5 3f b4 e1 18 6a e9 28 e4 3f
       1.3165024295821048 0.629994113179285
000790 72 b6 47 37 5d 67 d9 3f 34 b8 5c 05 78 f5 d9 3f
       0.39693384550523725 0.4056072285046668
0007a0 ba fc 16 8f bc e8 d3 3f 24 2e 10 22 3f 86 e0 3f
       0.31108011220562626 0.5163875260636286
0007b0 5d 0a c9 47 43 96 68 3f d9 15 2b 56 90 c6 a0 3f
       0.003001338393262372 0.03276492168292195
0007c0 1f 72 69 d0 c1 e3 e3 3f 8a 92 8f 59 10 25 df 3f
       0.6215523787064433 0.4866371988885382
0007d0 51 24 3c d6 db 51 ca bf 74 20 72 4b 1d 16 c8 3f
       -0.2056231304234495 0.1881748789203389
0007e0 e7 c6 77 7d b0 a2 d1 bf 36 c6 d6 53 bf ff c1 3f
       -0.27555477383348975 0.14061729043673815
0007f0 dd b0 b9 82 e8 98 b3 bf 4b 83 cd 8a 1d 29 cf 3f
       -0.07655194465195643 0.24344224240760534

bias_1 f8 [28, 1]
000000 19 c7 b0 b9 ea 2f af 3f 2d 83 75 2d 85 4c d6 bf
       0.06091245190363121 -0.348420423883044
000010 f3 4c 8d b2 11 ad d2 3f a1 d0 9d 7c 92 ba da 3f
       0.29181330143656153 0.41763746423317555
000020 a6 e9 39 3e 27 22 db bf 31 15 27 83 f0 0f f8 bf
       -0.4239595515897697 -1.5038914797926959
000030 15 e3 fd 4f 01 1e cb 3f 4e 13 f7 b6 8c 50 f4 3f
       0.21185318380209908 1.2696654460025516
000040 5c b8 e5 4c b0 4e d8 bf d7 7d 5c 74 ca c7 f3 3f
       -0.3798027754736546 1.236277060066518
000050 00 e9 59 97 c6 48 e0 bf b6 7b 0f 2b 12 a1 eb 3f
       -0.5088837581709242 0.8634119835877445
000060 a3 34 0e 13 43 dc ce bf 61 06 a3 69 de c1 e8 3f
       -0.24109686308330422 0.7736656249255242
000070 90 7f a8 ad f2 ef d0 bf ce a7 dd ac 07 e4 db bf
       -0.2646452613716912 -0.4357928455489145
000080 ca 96 e9 3c 3a 49 d6 3f f4 2e 0d 29 5b 4a b9 bf
       0.34821945141298427 -0.09879083397134619
000090 df 74 2e 4f be f3 b8 bf 0f ae 7d d0 df 7c ce 3f
       -0.09746922906056764 0.23818586044522802
0000a0 41 40 2a 14 0b 01 dd bf 3d 59 26 93 81 2c bb bf
       -0.4531886765407798 -0.10614785997890848
0000b0 8a 2d 15 81 5e 11 e5 3f 60 4a 60 b4 65 8d ce 3f
       0.6583702584406848 0.2386901026480528
0000c0 6d 54 21 42 5c 9c b4 3f ca 89 ba 98 bb 7e dc 3f
       0.08051087011820508 0.4452351562014455
0000d0 88 8d 4c 7e 1a e1 c2 3f ab 0d 79 47 20 2b c9 bf
       0.14749461333222436 -0.19662860383878686

weight_2 f8 [10, 28]
000000 5f da 46 b9 d2 1b e6 bf bb 1b 10 1f 89 75 08 c0
       -0.6908963793455988 -3.0573904444495077
000010 65 1f e3 ad b9 ab 05 40 08 7e 3e 6b f1 2d 00 c0
       2.7088502488076522 -2.0224331263013973
000020 bd 38 70 56 2b 8d e4 bf be 0b 92 9e e8 67 05 40
       -0.6422325790643054 2.675736655075041
000030 36 6d 51 0e ce 6a f2 bf ba 90 82 39 1e 2d ff bf
       -1.151075416498157 -1.948515152596015
000040 84 ee fe 78 52 12 f1 bf 90 49 8e ee 39 92 09 c0
       -1.0669731832885256 -3.1963995587513594
000050 46 42 29 98 40 63 e5 3f 7a fa d2 64 69 11 c4 3f
       0.6683657619378855 0.15678136275342408
000060 51 a8 ea 3f 91 4a fa bf a2 c0 3a d2 62 2b fa 3f
       -1.6432049271338836 1.6355922901239315
000070 63 14 e3 60 90 e7 fb 3f de 7c 94 74 c9 e8 f1 3f
       1.7440341744088748 1.1193327478320536
000080 b2 ff 7f ba d5 ce d8 bf e8 23 df 5a 33 39 12 c0
       -0.38762419903650447 -4.555859966153527
000090 b4 cb 39 f9 e5 2d 00 40 2c f4 c7 4e f8 17 cf 3f
       2.0224112959635594 0.24291900488597784
0000a0 b6 7d e1 ba 82 ba ff 3f b2 c9 01 bf 83 ba f9 bf
       1.983034830096455 -1.6080357991419132
0000b0 e3 46 c4 a0 9d 4c de bf ef 63 41 60 91 2e 0e c0
       -0.4734262533175821 -3.7727382202106052
0000c0 65 84 d9 fc 9e 7f d5 bf cf 65 43 12 64 db c9 3f
       -0.3359143704638597 0.20200777904282893
0000d0 4c 42 a0 8c e2 35 e7 3f 25 81 10 1d 80 fc 09 c0
       0.7253277536966123 -3.2482912321721806
0000e0 e5 8d ed ec d2 40 f1 3f 4c ae 46 5b c5 04 f3 3f
       1.0783261542318254 1.1886647763702909
0000f0 94 c2 e7 93 ee c4 ce 3f d9 0d 4c b9 88 65 f2 3f
       0.24038488599719143 1.1497885931174692
000100 44 b3 fb a4 ef b5 f7 bf 2d 95 ab 4f 2b 62 f4 3f
       -1.4819179958969508 1.2739670860403962
000110 4e 28 c6 03 d9 5a 08 c0 c1 15 9f dc 6b cc f0 3f
       -3.0443592352722026 1.0499075525307122
000120 05 6c 2c 1e 3c 57 f8 bf 18 a8 ae 7b 04 5a e6 3f
       -1.5212975672391178 0.6984884658497803
000130 3b 80 f8 f2 00 07 f9 3f 0a 8b 97 ed c0 1d ea 3f
       1.5642098895114163 0.8161320343463967
000140 98 f5 9d 25 d0 c8 f0 3f 18 0a 84 99 40 5d f4 3f
       1.0490266293921646 1.2727666851720922
000150 3d 2c 03 f4 ea ad ce bf 1b bc 38 ec d3 88 f5 3f
       -0.23968254961650529 1.345905230274872
000160 92 ba 39 c5 b4 ca e4 3f 43 91 91 17 f6 cf f3 3f
       0.6497444011746032 1.2382718010567977
000170 6b 3c ca e5 00 a0 03 c0 50 cc 7b 2f 50 5a 03 c0
       -2.453126712068799 -2.419098254170912
000180 8c 6c ef d0 08 46 eb bf 51 8f 8b 86 4c ad 0f c0
       -0.8522991257444956 -3.9596186171856194
000190 8b bf a3 30 2d e0 02 c0 3b 62 28 02 97 65 d3 3f
       -2.3594611930820455 0.3030755539962546
0001a0 88 6e 92 37 5e aa ff 3f 7f ea ad 5f 60 b5 f2 bf
       1.9790937586575712 -1.1692813622927642
0001b0 9c ca 8f 16 5f db 0f c0 f4 f8 b6 b2 61 2a f2 3f
       -3.982114959967772 1.1353470784229645
0001c0 13 01 cf e9 79 b2 f4 bf 55 4a 9e 32 2c 86 e5 bf
       -1.2935732968472322 -0.6726284969939323
0001d0 bb f5 74 51 10 49 c9 bf d9 4e 29 9e 26 9d f7 3f
       -0.19754222848307088 1.475866906946001
0001e0 e1 41 40 bb 32 63 c1 3f 9b f4 e2 62 5b 15 fd bf
       0.13583978789439669 -1.8177141058688793
0001f0 f0 0e df f5 17 01 01 c0 93 aa ae 94 0a 86 0d c0
       -2.1255339821526533 -3.690449868755715
000200 ac 4a f7 9e b0 88 d8 3f 3a b1 8e 60 5d ba 02 c0
       0.3833428909685306 -2.340998415331481
000210 04 21 23 27 be fb f7 3f f8 c1 f9 2a 27 07 0b c0
       1.4989606407926326 -3.3784926755399702
000220 5b a1 29 f5 8e 54 bb bf 64 4b db c8 1d d0 02 c0
       -0.10675900922217833 -2.3516193096087807
000230 df 3a 7d ba 0e 18 05 c0 d4 8f b0 cb 71 fa 0d c0
       -2.636746842333522 -3.7472873605019945
000240 79 be a0 6e 2d b1 f3 3f 63 fa ab 45 cc d9 08 40
       1.2307562180903047 3.1063466494663756
000250 11 6a d6 9a ce 69 0a 40 b7 38 04 97 68 09 d7 bf
       3.3016635986980494 -0.3599492525835432
000260 45 50 12 1f 2d 30 03 40 a5 a1 df 52 59 74 e9 bf
       2.3985235621894696 -0.7954527491211151
000270 26 d6 1b 70 3d ef fa 3f 6a 47 46 32 91 1d 00 c0
       1.6834082011458888 -2.0144370963761746
000280 91 d3 0d 19 0c bc da 3f fc f6 d3 5c 0d da 0c c0
       0.41772749373131385 -3.6064707996546286
000290 93 1b ac a0 35 2d 00 40 53 5c cd 16 7c f8 01 40
       2.0220749428294282 2.246330431120023
0002a0 79 0a 21 d5 65 8d f0 bf c2 5f ca 9d 89 85 12 c0
       -1.034520943198599 -4.630407777287418
0002b0 41 ff cc 25 06 54 0c c0 ee 02 c3 64 df bb 06 c0
       -3.5410273507294794 -2.841734683228757
0002c0 d8 4f 83 a6 de dd fa bf b7 5b 26 ed b4 46 ee bf
       -1.6791674141322712 -0.94613119428947
0002d0 3f 23 7e 54 53 f2 08 c0 35 ed 46 9c bf e4 e7 bf
       -3.1183230019563832 -0.7466733982359189
0002e0 10 87 dc 8a 60 6d f6 bf 6e 38 bb 9c b6 96 ff 3f
       -1.401703398158535 1.9742952463452883
0002f0 cc 79 2c 28 b2 6a 05 40 78 1e 70 e2 98 d9 ce 3f
       2.6770976198742797 0.24101553970853096
000300 aa ff 19 ca 71 75 e0 bf 5a 6c de 19 9e ee e9 3f
       -0.5143364856048624 0.810378122830467
000310 ae 98 8c 22 cc 5c fa bf 83 d8 d5 55 e0 d7 dd 3f
       -1.647655615766364 0.4663010442958539
000320 06 d7 93 93 21 52 ff bf 53 71 29 4f 41 47 f4 3f
       -1.9575515522714695 1.2673962681065702
000330 49 ca 25 47 cd c6 0e 40 75 36 3b 38 65 7d fd bf
       3.847071224060788 -1.8431141087088723
000340 ec 16 c0 c7 b9 b4 f7 bf f0 92 07 f4 45 c4 e8 3f
       -1.4816224863765752 0.7739591375544403
000350 e1 fd 82 b9 58 52 03 c0 56 5f ec dc 0f 5e f5 3f
       -2.4152082913494586 1.335464346868283
000360 5b f1 1e 56 68 71 c3 3f 6a bc 8a 6e e7 ba 01 40
       0.1518984241973936 2.216261733635794
000370 da ee 81 5c 52 bd e6 3f 40 cf 01 3f 9f d4 09 c0
       0.7106105620182135 -3.22881936287186
000380 b5 d9 47 f8 7e 55 10 c0 ec 91 2c f0 3e f8 0f c0
       -4.08349216402569 -3.9962137950517356
000390 e4 7c 49 4f cb 8d eb 3f 51 27 62 a6 9f 4b f6 3f
       0.8610588596892765 1.3934628009178207
0003a0 f4 e5 80 6b 0f d6 fb bf c6 03 36 c2 45 7f fb bf
       -1.7397607993465245 -1.7185723863951679
0003b0 21 57 82 ca 35 f0 01 40 a6 ba b6 09 1f c4 f1 3f
       2.242290098288223 1.1103811625904796
0003c0 e0 a1 1e 1c df 3a fd bf 76 9e 64 91 57 eb c4 bf
       -1.826872930376446 -0.16343206977147745
0003d0 eb 52 7f 15 60 54 d5 bf b9 ca 6d ed 33 a8 f4 3f
       -0.33327486132956946 1.2910651468816197
0003e0 5a 2d 79 0c 79 67 0c c0 24 c3 26 d4 7d 14 d7 bf
       -3.550523850868257 -0.3606257030287898
0003f0 6a 29 00 a2 22 90 04 40 b2 3e 6d de c4 d4 fc bf
       2.5703785568522806 -1.8019455612701845
000400 d4 82 77 5e 82 f1 08 40 f3 50 2b cd a4 a2 f7 bf
       3.117924440405071 -1.4772079481527356
000410 5d 11 2c 21 ce 88 94 3f e4 a4 95 fa 54 43 fe bf
       0.020053120398203606 -1.891438464017761
000420 45 c8 0d 8c 81 31 f5 bf 1c d9 4a 30 ca db ff 3f
       -1.324586436353017 1.9911596189900314
000430 60 c8 a5 ac 10 8a 01 c0 8a ef 84 22 00 46 df 3f
       -2.1924146164028997 0.4886474930860848
000440 d6 fa 27 5a b2 87 fe bf 7d 7e a6 1d 0d a8 ac bf
       -1.9081290742612302 -0.05596962916319812
000450 eb 82 0b 20 16 84 d7 bf e4 9d d8 c9 c7 50 fb bf
       -0.36743691567794085 -1.7072217831245036
000460 b0 6d f6 a5 09 3b d1 3f 3b 44 3d f7 a9 28 11 40
       0.26922837455068827 4.289710867990887
000470 e0 da 6c 42 8d 60 f6 3f 8d 9d e8 dd 9a 5d fd bf
       1.3985722155318214 -1.8353527706438826
000480 c0 4b 1d 00 65 b4 cc 3f 32 c1 4b 20 69 a5 06 c0
       0.22425520425403356 -2.8307669184797755
000490 c1 54 96 33 19 28 f1 bf 96 10 ff 71 1b 19 4e 3f
       -1.0722896590353204 0.0009185203562016738
0004a0 57 66 5f 86 66 b9 fa bf a2 98 55 f3 91 e9 f4 3f
       -1.6702637909824227 1.3070239548920104
0004b0 32 35 44 d7 69 82 09 c0 c0 5b 7d 75 a6 5c eb bf
       -3.1886784379663817 -0.8550598425598466
0004c0 c7 6c 24 31 a3 81 ee bf 5e a7 f4 57 08 2b 11 40
       -0.9533248863039255 4.292024015719873
0004d0 61 63 09 b4 b3 b3 09 c0 af 4e a4 65 8c 3a e9 bf
       -3.2127451005330134 -0.7883970246498019
0004e0 b3 6e 91 55 36 8b fa 3f 04 6a c5 87 45 1f 0c 40
       1.6589873640540815 3.515269337379552
0004f0 a9 7d e6 db dc cb 14 c0 78 34 8e a1 cf db 05 40
       -5.199084697669073 2.7323296185991772
000500 c3 65 c4 de 55 71 f0 bf 43 f4 db 56 1f 8c 10 c0
       -1.0276697828143007 -4.1368382999181135
000510 47 69 31 b6 00 cf 06 40 e5 e5 4c ba 3e 82 99 bf
       2.851075576193725 -0.024910907860634785
000520 3c eb fa 33 f6 c3 fa 3f 83 81 a9 77 0e 22 f5 3f
       1.6728422193979915 1.3208145784666108
000530 67 17 df 56 d9 4b ea 3f c6 1e be 94 4f 8c 02 c0
       0.8217589089115166 -2.318511163761147
000540 46 1c 08 0e 3b 83 f6 bf e9 89 dc f2 fd 7f 01 40
       -1.4070387409317546 2.1874960874131273
000550 db 0e 97 44 b9 9a 05 c0 b5 5b e2 62 be a7 d4 bf
       -2.700548683032918 -0.32273826271687805
000560 50 7c bf f3 de 2c f0 3f ce d8 45 79 c4 df e6 3f
       1.0109548112302669 0.7148153656587739
000570 ee 14 32 11 2a 1c fb bf b2 b4 a8 ff ad c0 08 40
       -1.6943760558800096 3.094081876121515
000580 8e 4b 9e c8 ad d0 fd bf 4c d5 68 a4 d7 b2 01 c0
       -1.8634469830182954 -2.21232536740232
000590 5b ce 50 5b 64 71 d2 3f ad 29 a9 a7 8d 19 bd 3f
       0.28817089955848524 0.11367116301804599
0005a0 a7 d5 4d 05 54 9e 02 c0 b9 c6 fe 63 dd ea c1 3f
       -2.3273086943033436 0.13998000509814348
0005b0 32 dd 65 80 e5 96 d4 3f 8c a3 c1 7f e7 b2 00 c0
       0.32170999087198304 -2.087355611893548
0005c0 42 7b 61 21 4f 29 0b c0 e7 79 d7 e2 9d 50 13 c0
       -3.3951704604982362 -4.828727287675497
0005d0 41 73 2a ae 65 e3 ee bf e3 0c ef 36 0e 39 00 40
       -0.9652584458996004 2.027859143419492
0005e0 1a 08 2b 36 b1 44 05 40 06 18 67 14 0a 61 e5 bf
       2.658541129291746 -0.6680956266870914
0005f0 f7 9b f8 88 e1 75 ba bf 15 93 28 ee f7 97 02 40
       -0.10336122125646328 2.3242033582813613
000600 dd 43 89 a7 23 6d e6 bf 01 19 38 82 99 0f f0 3f
       -0.700822665423512 1.0038085066494775
000610 4d 5e c2 d1 da f7 0e c0 18 ea 1b e7 80 ed d6 3f
       -3.8710228335801617 0.35824606484644184
000620 56 03 d2 21 27 7c f6 bf 90 64 16 2c c3 4c e4 bf
       -1.4053107567890115 -0.6343704091151654
000630 51 a8 4c dc e4 96 e6 bf 49 8f ed ad 5c b8 e2 3f
       -0.7059196760867598 0.5850051304846399
000640 4a 4b 32 c6 33 4c fc bf 6a 44 0a 20 cf 32 fd bf
       -1.7686040632294913 -1.8249045611921937
000650 d4 f0 93 07 ce 91 09 40 96 f2 7e d1 6f cb d4 bf
       3.1961937515280656 -0.32491679628928105
000660 9a 6c 0a 11 c6 56 05 c0 4a 24 55 20 2f 14 09 40
       -2.667369969492552 3.1348555112822725
000670 5c e3 bf 1a 09 62 ef 3f f9 1d cd ef 5f e7 07 c0
       0.9807172319843676 -2.9879759535285726
000680 4e be 2b bc 42 22 fa 3f cf e9 e4 a7 69 1b c2 bf
       1.6333644247460088 -0.1414615697666037
000690 50 e2 79 49 9a 13 0d 40 d7 28 a8 ef 3f 45 ff 3f
       3.634571622879129 1.9544066773983582
0006a0 cc 9d 8b 06 42 03 01 c0 0b dc 2e a4 76 e8 f2 bf
       -2.126590777526621 -1.181753770198841
0006b0 e8 31 14 2e c9 ef e9 3f 1e 12 10 0f a6 ad ec 3f
       0.8105207347849133 0.8961973470873692
0006c0 cf f9 ed b3 c5 49 04 c0 a2 9c 2e 94 7a 28 ec bf
       -2.5360216195105987 -0.8799412626439287
0006d0 d6 ce ec 09 10 d3 ee bf c3 d3 95 03 8b 8f 0f c0
       -0.9632644838188422 -3.945089366922248
0006e0 95 94 3e 79 c7 cd fb 3f 6a f0 00 14 8f 20 e1 3f
       1.7377390609847556 0.535224474973359
0006f0 ca 98 af 59 a7 dd 95 3f 52 ac a6 82 99 e4 02 40
       0.021353354310030416 2.3616209227671243
000700 73 b8 e6 2c 4c 36 eb 3f f9 57 0e b5 7d 0d e8 bf
       0.8503781201341226 -0.7516468559504111
000710 47 08 69 be 80 72 06 c0 6e 39 aa 36 bb 25 fa 3f
       -2.8059096217921566 1.6342117438649342
000720 3f 2e f0 d0 3b 4c 0e 40 af 44 8b cc aa e1 f4 3f
       3.787223465280277 1.3050945272446304
000730 26 19 ad 5c b5 f3 11 c0 a6 5e 0d ee 04 f4 f6 bf
       -4.487996528687551 -1.4345750140109117
000740 4e 9f 33 a3 70 90 f2 bf 95 26 d6 18 66 e2 dc bf
       -1.1602636694969592 -0.4513182871383859
000750 51 1f 0f d8 fa 24 07 c0 95 60 ca c9 be 44 e3 bf
       -2.89305657192373 -0.602141756174222
000760 f2 0d 93 27 d7 d1 ea bf a0 30 ef 1f 17 d2 0d c0
       -0.8381152890146366 -3.7275831694478967
000770 47 f3 4f d1 17 18 fb bf 59 7f e0 41 b0 3a f5 3f
       -1.6933820892583797 1.3268282483404248
000780 f9 36 62 62 90 f7 e1 3f 1b 46 ca 50 17 c6 10 c0
       0.5614702149921121 -4.1934483169038925
000790 96 e4 5b ec 0d ad cb 3f 35 08 47 1e 29 cf de 3f
       0.2162187007996052 0.4813940807035835
0007a0 59 0a 3b 8e 65 eb 0f c0 33 69 69 3e a7 b7 04 40
       -3.989939795662661 2.5896744609755387
0007b0 7f 64 f9 f0 b1 af 05 40 ce fc a5 c6 f9 96 e1 bf
       2.71078861485563 -0.5496796493388503
0007c0 c9 fc 4b f1 4a f5 0f c0 0b 12 ad ac 5d 12 08 c0
       -3.9947718478502776 -3.008967732459728
0007d0 86 c4 5e 7a 52 e2 c5 bf e9 43 87 d6 10 f2 f4 bf
       -0.1709693048010516 -1.3090980892195552
0007e0 ed 20 03 b1 50 5d 10 40 e6 7b c5 fe 59 c5 b6 3f
       4.091128125968891 0.08894884557729163
0007f0 e2 70 1e 9e 4b f5 00 40 f6 85 71 12 0b 82 00 c0
       2.1197731354751435 -2.063497680749374

bias_2 f8 [10, 1]
000000 c1 8c 81 e9 cc 1e 02 c0 59 82 42 9d f4 04 f3 bf
       -2.265039276376769 -1.1887098448716158
000010 b6 dd 28 e1 e8 6c a2 bf bd 19 00 9d 13 90 fe bf
       -0.03598716496020009 -1.9101749546840516
000020 f7 38 79 6e 03 f8 f8 bf d4 86 71 8b ab ab ee bf
       -1.5605501475689019 -0.9584558223252437
000030 e0 6a 5b 45 37 45 fe bf af 7b 87 de e5 a7 00 c0
       -1.8918984135877324 -2.081981409558885
000040 c8 d3 56 91 46 cf 02 c0 46 98 38 a8 55 9b f5 bf
       -2.3512088160154896 -1.3504234858642277
