cnn_model/weight/weights.npz (npz, 128286 bytes, 4 tensors)

weight_1 f8 [20, 784]
00000000: 00ef e3dc 7182 7f3f 00cf 8982 3c2f 8bbf
00000010: 6812 298c f2d8 b13f 9cbb ee40 39b6 dcbf
00000020: d4d4 7c69 3f5a c1bf a8ff 93e6 b7de ca3f
00000030: 8839 7884 b833 dfbf 70a9 ab74 af41 a1bf
00000040: 7c61 5dab f865 c03f 308e c217 252b cd3f
00000050: dc96 93c6 75aa db3f d63e b225 1219 d03f
00000060: 3a4d d7d6 b673 cbbf 6ed1 bb60 7328 d43f
00000070: f96f b7e4 f8df b63f 8956 2032 9de7 dcbf
00000080: fc78 1ee8 c364 c4bf 54d8 b515 228c d93f
00000090: e853 3c21 5062 c73f fc9f 4622 e7ba c0bf
000000a0: 0043 2cce 1f6f c9bf 8876 576b b8c3 b93f
000000b0: ac74 630a a462 d1bf ac8e 2a21 9af6 c0bf
000000c0: 50a8 9046 57cf b53f e8e6 1405 7467 c3bf
000000d0: 00e2 c16f f6a0 863f e899 7b83 4c2a c6bf
000000e0: 64f5 3c3d b6b7 cd3f 2654 fd30 015b d93f
000000f0: 405d 9f3f 36d0 8f3f 3a15 bcdb 9614 dbbf
00000100: 25c1 52aa 1707 d5bf 57c1 a6f2 5118 a5bf
00000110: 2c7b a65c 435d ddbf e3e9 442c 8380 d23f
00000120: c913 2ff2 1fe7 b4bf aa99 0c25 5d5d cf3f
00000130: 65a1 8ee0 9919 bf3f bfcf 423e 6f00 ca3f
00000140: 767c a5af 8985 dabf 77d3 5095 56c1 d63f
00000150: bec1 f71d deb4 dd3f 8f37 655c bdc1 cbbf
00000160: 2a35 e58d a044 db3f 11b1 302c e642 d5bf
00000170: ef37 497c 878e bcbf f089 f77e 6fbf b63f
00000180: 0215 a70f bb94 cebf 2380 47d6 a5fe da3f
00000190: b786 760d 540f c4bf bdd3 682c b144 d93f
000001a0: 3ebd 04e6 ea67 d73f 50f3 31b2 f4ab a03f
000001b0: 8843 e1cd b45f c13f 1050 14fb 510c c0bf
000001c0: 6cc0 26fb 5632 cabf e843 c87f 6594 c73f
000001d0: 714d 6fb9 dde6 c83f 6732 72ce 7b4a da3f
000001e0: 6874 5103 eba1 d73f efaf a3c0 ac37 d63f
000001f0: bb9f f4c8 713d c33f 8380 a518 ea0b babf
00000200: 6bc2 1d92 0617 c63f 4d92 8e89 1ec1 cebf
00000210: c133 965c 687c c9bf 33c3 59bd 0a2a da3f
00000220: ceb9 7bb3 d07d d83f 7afa 6b9e 6c7a ab3f
00000230: 17f0 d616 da8f dfbf 827e af28 f2c2 d5bf
00000240: 3891 36ac d0d4 c0bf 0497 ba83 7c59 be3f
00000250: c21b 8b3c 03bf d63f 6827 1951 aed3 d6bf
00000260: 8cf4 b641 cb77 c5bf 0f15 0dce 5355 d63f
00000270: ff32 09b2 3231 d4bf 8433 545e 24e4 d13f
00000280: 712d 0ce3 9ec9 ddbf c9e1 64d9 3288 d2bf
00000290: dcaa e9cf 1c11 c2bf 601a a18f 057d 973f
000002a0: a882 43bd 52ae bdbf 8e1a 1b02 26c3 db3f
000002b0: e6ca 103b 8374 d7bf cd3c 978e 6e41 de3f
000002c0: db75 2a01 a3cc de3f ad4f a917 11e0 cd3f
000002d0: a339 7742 2824 c23f 6b82 a5d4 7dec d9bf
000002e0: 9f9d 38f6 fe0d bbbf bc68 15b3 dc6f d63f
000002f0: 6a78 495d 06b3 c5bf 846a 919c 7560 d4bf
00000300: cae9 8577 5186 d53f e64b dc6e 102d b9bf
00000310: 1c96 7181 4be2 dbbf b705 721f 4360 c83f
00000320: 4dbb 1cf6 9fcd e1bf 582c 0998 b5f9 e0bf
00000330: e6e8 9b7a 0e53 cabf 3d41 67d5 fa68 853f
00000340: 1da4 7ed7 6058 bcbf d2b6 f976 4b0e d93f
00000350: 8b32 f6ea 4806 c0bf 44e4 2366 950a d13f
00000360: a645 10fc dd3e bfbf 006c 69e4 7a30 c8bf
00000370: bfdc c2ae 1c15 c53f 1808 565b 801a b8bf
00000380: 7c32 111f cc6e d53f 3fe6 ae87 d90f d1bf
00000390: 0233 0d93 d14b d7bf 7de4 94b6 bbb0 bbbf
000003a0: a64c c22e f42c c13f f695 9198 c457 c1bf
000003b0: fca5 8caa 9a20 9d3f 8e9e fd1f ee45 ba3f
000003c0: 3039 84f4 a303 d03f a448 a9b3 1187 a7bf
000003d0: 8651 be1a c682 d0bf b719 dde5 532c 6b3f
000003e0: a4ba 3da5 6fb5 c5bf d669 a077 51d7 debf
000003f0: 7ef3 2641 acdd bdbf 9098 9b2c 3dc3 d5bf
00000400: 795d fbce 243f d1bf 456a 4c15 8414 d1bf
00000410: 4755 a7b0 e7c3 823f 44de 9218 f0ef c93f
00000420: 13d0 3ec5 039f e13f 16b3 a62a f153 e13f
00000430: d250 9ee3 96db bcbf f592 7cc3 1ca5 e03f
00000440: 4b20 d8ae dc4a d0bf 8dd0 035b 0051 dbbf
00000450: ab2c fac8 7d58 cb3f 21f1 43fc 8e4c b53f
00000460: 384e 3eb5 edd5 c6bf 18bc 00c8 987b b2bf
00000470: 093c 280a a233 cf3f 5cc8 e1f7 8e03 dc3f
00000480: 4ee9 8942 ca13 c33f 0ed5 4c47 ec6b cebf
00000490: eccb 360b 70b4 de3f c74d fa09 0a88 d3bf
000004a0: 42c4 8dad b799 97bf 3415 f46c 69ec d13f
000004b0: 7806 da4e b159 e03f d382 626f 7d4a a53f
000004c0: 0960 eaa1 6584 d5bf 6e1f 6c5a 5358 e6bf
000004d0: babb e6e2 7dc1 f1bf 3e8c d1f1 4aa7 ebbf
000004e0: 38be e7bc d6b2 bebf 028b 25b3 30ce bdbf
000004f0: 0fd4 5fad 9f7d d23f 4058 bdc7 e169 cc3f
00000500: a39e 496a db7b c93f 143b 05e8 bf31 b43f
00000510: be4f 6e21 9b92 da3f 5dee de7d a871 adbf
00000520: ca53 90a9 5539 d03f a5ba bc41 2881 bf3f
00000530: d0da 618d ab49 d6bf 477c 0762 4a6c 923f
00000540: 5eec 6e97 a48f da3f 8e24 82a9 1b45 b0bf
00000550: 0f3c 6538 49bc ddbf bcae 5542 08b4 b83f
00000560: 5970 be1d 149d d83f ce06 a5e0 79b3 e23f
00000570: 3f20 00c1 33c3 cdbf e699 d82a f617 d63f
00000580: d337 b485 05f4 d33f d7c0 a96c 7bc4 d7bf
00000590: cb67 a8c6 1b9a c7bf 22dc 8edc a518 d6bf
000005a0: 334b 68ab 0047 99bf 3932 bb8b a235 f1bf
000005b0: 58eb c005 3f4f f6bf d55f bef7 a52e f5bf
000005c0: 8d1a 1ed7 795f e3bf 59bf 68ef a255 ce3f
000005d0: 1584 6ea3 ab2b c53f 943e 96e7 aa19 d43f
000005e0: 1d4e c296 2817 e13f c702 5568 291d d43f
000005f0: 5343 3b67 6219 e13f 5049 3c41 2aa4 a13f
00000600: fa6b dbdd 422a e23f 3f4f 859a de29 d3bf
00000610: 7fc6 9eac 7baf 933f 9c3f 25d3 85d1 acbf
00000620: 4cde fbc3 3e15 d3bf 3de5 6cbd 1c5b 953f
00000630: 01e4 8479 603b d83f 41ac 0c31 8f3c db3f
00000640: 6a57 11f0 d8a7 c3bf 9b08 ad1e 45a3 d03f
00000650: c05c 14a0 9c9b e33f 5d2c 3ed6 a681 db3f
00000660: 0f3f a67b 3b46 cfbf a232 eb22 e01f d63f
00000670: 44c1 ea0a 7858 bdbf 9358 6c8e 1ac9 d43f
00000680: 8983 b6d3 1d65 d7bf f48a 80ee 7a8b edbf
00000690: cf3c 55af 3f91 f4bf aae5 da07 2038 f0bf
000006a0: d232 a097 39d7 d03f 00a9 8922 85ca c93f
000006b0: 222a 6c67 8092 e63f c8fe 3d49 c8da da3f
000006c0: ec7c c949 57d2 d43f e03e d697 2efc 9e3f
000006d0: 6519 9c73 a715 bf3f 04d4 2b6f c573 e83f
000006e0: 3f77 b0fa cf36 c4bf 62eb eb12 cacd db3f
000006f0: 7d0a a845 a20f cd3f aaad 1862 6ae9 c13f
00000700: 7243 f334 3a84 bcbf e611 f730 1b2c c8bf
00000710: fe6a 6a36 d753 90bf acca 53a6 0415 c6bf
00000720: 34e6 5d8b 5102 c5bf daa5 a655 7719 e03f
00000730: 990c f8fc 83b9 bebf cf78 cfb9 19fb e03f
00000740: 1dff e174 d5d9 dc3f d05f 0526 149b ce3f
00000750: 7a65 8ead bfbd cc3f ac3e 7813 77fa ce3f
00000760: 78cb 6a5c b0f4 d53f d941 64a2 f0a5 eebf
00000770: d5ad eef9 ccd0 ebbf 2dfe 906e 8fe0 eabf
00000780: 547e f259 7fd3 bc3f 69b5 56d5 1834 e23f
00000790: 74ba fe3d 95cf d53f 44d2 3092 2435 a83f
000007a0: 8925 1319 1a2f e03f 8f9b 54d1 007e bd3f
000007b0: ca2a 0267 fc55 d23f bfd5 a5cb 89d6 c5bf
000007c0: 321e a9cd 6b37 ddbf 09f3 ac95 384d d8bf
000007d0: 89a3 548c 2a42 b4bf 5129 66f4 e64d dbbf
000007e0: 7066 3f2e d510 dbbf fb38 9c94 8712 c83f
000007f0: c39f f782 b4e6 c7bf 506e 56d1 e3a4 bc3f
0.007692761208314414 -0.013273689969742986 0.06971660539518043 -0.4486220487696586 -0.1355666413379938 0.20992182501504186 -0.48753178535925956 -0.03370426463318921
0.1281119190923724 0.22787917766719223 0.4322790564750514 0.25153020554806227 -0.21446881761822018 0.31496891447684205 0.08935504516506389 -0.45163659949444274
-0.15932511171281039 0.3991780483260119 0.1826877748759721 -0.13070382283808601 -0.19870374266658786 0.10064270611425219 -0.2716455556345163 -0.1325256978935746
0.08519502136974322 -0.1515946411907898 0.011049199376643948 -0.17316585941371376 0.23216894140379474 0.39617948326241714 0.015533851448636171 -0.42313167055575074
-0.32855788834696603 -0.041201172705202786 -0.45881732986338153 0.2890937740627619 -0.08165168440525784 0.24503673848194057 0.12148439152099895 0.20313826122366938
-0.41440050271007267 0.35555042821515975 0.4641642849592492 -0.21684996615880123 0.4260636697479919 -0.3322081977410259 -0.11154982361151132 0.08885857438830391
-0.2389139009884858 0.42179246831620015 -0.15671778352139196 0.39481763207305304 0.36571762526269314 0.03256191897614846 0.1357332234643105 -0.1253759838078854
-0.20466124785662332 0.1842162012040085 0.19454547457153695 0.4107961193156257 0.3692576916126371 0.3471481209987805 0.15031263649257007 -0.10174429990502358
0.17257768759329237 -0.2402685329117439 -0.19910912056766786 0.4088160370948117 0.3826791527525558 0.05366839822635412 -0.49315502386503013 -0.34002355549998964
-0.13149460228772525 0.1185529538730315 0.3554084864849153 -0.3566699783301517 -0.16771832188343117 0.3489579689233588 -0.31550280939408987 0.27954968654449197
-0.465430947996274 -0.28956290464296025 -0.14114723350515745 0.022937857524335192 -0.11594121094413856 0.4337859173360038 -0.36648636596798523 0.4727436439979556
0.48124003518918607 0.2334004750761073 0.14172843213459627 -0.40505929723989337 -0.10568231116541547 0.3505775212157791 -0.16952590518025384 -0.31838741578909713
0.33632313415696713 -0.09834387499385819 -0.43568694725976953 0.1904376891653052 -0.5563506895904112 -0.5304820985269414 -0.20565968500870396 0.010454139363816334
-0.1107235456571662 0.3914974843854512 -0.1251917979501694 0.26627097105626185 -0.12205302623649192 -0.18897949364585998 0.16470678838024885 -0.09415437917599012
0.3348875335111996 -0.2665923905402429 -0.3640026031542193 -0.10816548545416711 0.13418438227799817 -0.13549096536296162 0.028444687518605946 0.10262954979918446
0.25022219542087765 -0.045952370816523286 -0.25798180209792354 0.00331703554448667 -0.16959949081816206 -0.48189198190962423 -0.11666370955113156 -0.34004144054632324
-0.26947899067950903 -0.26687719421321204 0.00916272170881406 0.20263482284438983 0.5506609775970922 0.5414968331366221 -0.11272566849794721 0.5201553171251293
-0.25456921648629266 -0.4268189324204819 0.21363804162351605 0.08319944056342311 -0.17840358114027466 -0.07219843752749033 0.24376321311908125 0.43771719176505086
0.1490414452453685 -0.23766854745341742 0.47976304144975646 -0.30517817472829417 -0.023047323196298437 0.28005443229661187 0.5109488048621662 0.041583938452509316
-0.33620587169707555 -0.698281933408891 -1.1097391951877698 -0.8641714785593491 -0.11991636383003701 -0.11642746328065459 0.2889174645527541 0.22198126080428615
0.19909231843779648 0.07888411917268129 0.4151981188272166 -0.05750776802548494 0.2534994274040484 0.12306453328049345 -0.34824646765575284 0.01799122069666861
0.41501726902396807 -0.06355450523746439 -0.46461706645362794 0.09649707431315852 0.3845873156039992 0.5844087016668824 -0.23251959728099966 0.34521249946774757
0.3117688947394274 -0.3713673173106264 -0.18439051818933047 -0.34525438822623944 -0.024684915983083044 -1.0755944689036723 -1.3943472122907306 -1.323888747929222
-0.605404777671383 0.2369884175291144 0.16539521675170535 0.3140666257467981 0.5340769714843564 0.3142798918598086 0.5343486801376492 0.03445560499507627
0.567658837618523 -0.2994305142394644 0.019224102412130236 -0.056286031746480364 -0.29817170275734806 0.020855378209693177 0.3786240755758286 0.4255712489127213
-0.15355979654367086 0.25996520991987787 0.6127455832055588 0.42978831216959695 -0.24433082139557213 0.34569552812608084 -0.11463117853668786 0.32477439793127266
-0.36554666209308856 -0.9232763918156182 -1.2854611252731052 -1.0137024218405295 0.26313628966526637 0.2014929216996464 0.7053834934207013 0.4196034159904056
0.32533819394843877 0.030258873002423026 0.1214241654634854 0.7641322299301696 -0.15792274227799827 0.43443538520630487 0.2270396080130758 0.13993577756751324
-0.11139262955408727 -0.18884601488947722 -0.01594482679011388 -0.1725164234299731 -0.16413325600642426 0.5031086609716866 -0.12001824308394972 0.5306519154653645
0.4507955209191879 0.23910762650007067 0.22454067205834943 0.24201858950299504 0.34305962586511596 -0.9577563449584502 -0.8692383653155341 -0.8399121436595515
0.11260219522454779 0.568859497716102 0.34079485944940946 0.04728044781260057 0.505749749159052 0.11520390616042973 0.2864981656972928 -0.1706096882223118
-0.4565076359180892 -0.3797131978679294 -0.07913461614647423 -0.42662977091881255 -0.42290238872883545 0.1880654788623771 -0.18672806162726205 0.11189102040082699

bias_1 f8 [20, 1]
00000000: 8b75 a930 54e5 da3f b4e9 4494 cd5e e73f
00000010: 2c85 e900 2f71 f03f e536 278f ad97 dbbf
00000020: 1fb2 ab23 87ce c8bf 8a99 ed64 ef72 e0bf
00000030: 3f4e 79d3 efff a9bf a879 ac05 8905 f1bf
00000040: 58c8 8cf8 a23a ba3f d3a5 2e3f 65bc f6bf
00000050: 015f 175b 5dc8 d5bf d267 95aa 8237 e1bf
00000060: e2e1 b737 a3a8 ca3f 116a 0f49 2813 d6bf
00000070: 17e2 0fa3 8fca d63f 330f 317c fd54 fabf
00000080: 0245 6d60 036c e03f 8dea d776 7e14 00c0
00000090: b490 e763 6497 da3f 31b2 511e f24f fa3f
0.4202471232618669 0.7303226371653211 1.0276327167160373 -0.431132688329724 -0.19380273095829723 -0.5140301676990913 -0.05078076797931574 -1.063851377642644
0.10245722358811926 -1.42099499397806 -0.34035428901323433 -0.5380261737548102 0.20827141018504763 -0.344919272754539 0.3561133472826738 -1.6457495547519556
0.5131852038704496 -2.0100068363802337 0.4154902434950245 1.6445180115071134

weight_2 f8 [10, 20]
00000000: 6115 b0ec 9b0b d3bf ee76 6556 5b90 e53f
00000010: 751d 1511 5c0c d93f 1f7c 20de ac4d 0340
00000020: a4fc 0a6b 4fb0 06c0 1797 7ee2 7677 ef3f
00000030: 5ff9 f223 2508 06c0 e607 d898 a6a2 eebf
00000040: a98c ab37 84af 07c0 07ff 4f98 de50 03c0
00000050: 403e a2fa 13bd febf cd1a 22f4 48b2 0640
00000060: 3a25 9339 cc1e f6bf 93cd 8802 4c70 01c0
00000070: 3f9b 7e46 c64b f6bf f700 6c9f d419 f33f
00000080: d98e 031b bb4a fe3f 3219 5735 a117 fdbf
00000090: 370d 7ebd c0dd 0bc0 b924 cb30 8cf1 02c0
000000a0: d620 e052 0430 0040 5cb7 d967 e243 c6bf
000000b0: bfcc 7e08 78fc 0dc0 7ba4 4f48 9982 f03f
000000c0: 746b 8b46 05e3 f53f 9c37 c0d2 8229 0dc0
000000d0: 4041 ed22 afba b03f af4d 269f fc81 fe3f
000000e0: 73f6 2027 7785 0240 fb59 cec8 5cd0 fcbf
000000f0: bf35 f42d 1eeb 00c0 89a5 7703 5830 06c0
00000100: 295b ddb8 8c38 f53f 1a26 fe05 f99b c9bf
00000110: 63a1 d254 dcb4 0340 b565 3fc9 5de7 08c0
00000120: 3d64 6707 ef47 e43f 399e bda3 803b e63f
00000130: 5261 a575 d0bc 07c0 68b5 b443 8f2e e23f
00000140: c665 2ced 18c0 05c0 08f5 0efb 0bce f33f
00000150: 07cd 6920 41bc eebf 257b f259 c0e2 f33f
00000160: 52fe d753 df16 ea3f 9ef3 c388 de10 01c0
00000170: ba7f 7922 1da7 0740 e6c0 4019 28e5 d6bf
00000180: 414d d465 5d37 0ac0 dfef b37d 1281 0840
00000190: 222b b850 b156 07c0 d7d2 9aba ad3e e33f
000001a0: 2543 be49 776d 02c0 9f82 91eb eb43 e33f
000001b0: 456b 5241 b708 e0bf c841 dbc9 4b71 e43f
000001c0: 8bfb 1792 4448 04c0 ee70 f274 0908 06c0
000001d0: 9c4c 8bf7 2f70 04c0 6326 cd6f ff69 f03f
000001e0: 64f6 1355 02ee f0bf 3daa 9cf1 5c24 e13f
000001f0: a6e4 d746 a4a5 0bc0 37da 8ba2 ef42 f3bf
00000200: fc09 6c32 67d8 e53f c6bd 3eea e848 05c0
00000210: bf71 0556 7fff e83f 2d3e 922d c69c e53f
00000220: f2fc 6f2e bd60 c63f 9656 1e35 117e 0340
00000230: 4307 9bb3 6bbf 0140 2fb6 20ae cfe2 fc3f
00000240: 9b0f c43f a5db e4bf 5845 4886 813a 0ac0
00000250: aad9 0dfb edbf f2bf 3786 69d8 b07f e73f
00000260: 55eb 6569 fa3e 01c0 6825 99c2 0b4b eb3f
00000270: fb8a e96e f626 0040 be30 9e23 5229 0bc0
00000280: bc74 6cfb 7815 0340 2666 dfa8 053b fdbf
00000290: 39b6 06c2 6a14 02c0 72c4 19fa ce94 0ac0
000002a0: a4b6 dbc7 49f3 09c0 79e0 6905 21da 0040
000002b0: 9022 e0ce 7514 ccbf 1289 2d69 6bcd 09c0
000002c0: 4061 7de3 8c3b f13f 623d f698 51d5 92bf
000002d0: 429f 7817 dd46 f8bf 019d 1e54 662c ecbf
000002e0: 4eee 2fad d161 0dc0 d06d 2ff5 ae83 ee3f
000002f0: f4b3 8dc1 b94c e33f a986 204e f58c eb3f
00000300: 2bc0 93a8 718e f6bf 9632 cd31 dec2 f83f
00000310: af42 8b23 ca06 d13f e8a6 3fbb 4cc8 f93f
00000320: 8599 f629 257e dfbf a050 e3b4 2a23 d1bf
00000330: 157b 82e1 c214 1540 fb36 67db ab2b 05c0
00000340: d074 fb48 8be0 ecbf 370b 4d6e 99b9 cebf
00000350: cad0 dba7 e2f1 e13f 4d7f f377 e60d f9bf
00000360: a87d 22c0 d035 0540 ea1d a12c 961f babf
00000370: 35f6 0aa1 8246 d83f a279 15b3 5e63 02c0
00000380: 7ca7 82b2 6747 e03f ff49 225c 550e fcbf
00000390: de8e 2d9a 2655 01c0 e9ac c01d e8d3 15c0
000003a0: e0df 1608 37fa 0540 ffce 2bf8 7309 10c0
000003b0: 9627 4a3d 8ec0 0840 1bd1 a53f 292a a4bf
000003c0: dbea d7ff 9d28 d5bf 5542 a4c8 707f 0ac0
000003d0: c607 ce3d b3aa ea3f e00e bba8 702f e4bf
000003e0: e457 48fa 197c 0840 e7e4 6f69 2ead ebbf
000003f0: a3e7 aa7c 4607 03c0 cbc7 3920 41a0 0740
00000400: 187d 92ef 2154 07c0 a70f 9101 61fb 05c0
00000410: 6745 319b 3637 ed3f ae35 9050 2025 ffbf
00000420: 828b 5912 51de 0ac0 1b44 6a38 da0f e23f
00000430: 01cb cd57 f6e4 f23f 0c5a 554a b34b e1bf
00000440: 6463 328a 2032 ed3f df48 5914 d113 04c0
00000450: 1161 7c78 b6a1 06c0 5f70 47c0 10f5 bdbf
00000460: 6e6c 203e cb02 0140 403c 26a3 14b2 b6bf
00000470: 9242 fec9 04f1 f3bf 6b4b b33e 9c99 e43f
00000480: 1a17 0dd1 7dff e2bf b556 353b ba5e 0ac0
00000490: 3b10 9b42 5079 e5bf ff7b 3bc2 c21d 0fc0
000004a0: 55c8 8bdc 2f55 0ac0 0eea 40f3 cb13 02c0
000004b0: 5a2d 3464 2a9e 0440 ef27 0c6c b625 0540
000004c0: fb26 c99e b7cf f83f 7fb1 e5d1 f982 f8bf
000004d0: b37c c6bb 4c75 01c0 da97 506e d6b9 fbbf
000004e0: ffd8 9ad7 fd00 01c0 7c9d 3524 e510 eb3f
000004f0: 3bad 30ef c89a bf3f d451 6e62 6bfe 0640
00000500: e552 3dcf cb06 04c0 9df1 718e 9edd fcbf
00000510: 2a0e 01d0 9452 debf 8a04 7719 67ff d43f
00000520: 63e7 4932 b535 0cc0 caae e695 d2cf e83f
00000530: dd07 37f7 3952 0140 e009 5cf0 3a8a f93f
00000540: a284 2cf5 675c f9bf ee7f 3cc6 49e5 ec3f
00000550: f6bd 2437 6f80 ff3f 7d05 63c1 d245 0bc0
00000560: ec44 2ae5 129e d63f d162 5bdf eb0b 0540
00000570: 7eee 3f04 87bb 11c0 a268 c399 3e87 d53f
00000580: 3e88 cee7 5374 f0bf 0203 f537 f416 0240
00000590: 641f eed2 6916 14c0 4fc9 affa 78b9 00c0
000005a0: 006b 734c 325d 10c0 69b4 2c15 0f1c f53f
000005b0: d1c8 7b12 1ecc d8bf 8ff6 9882 71c9 fa3f
000005c0: 017e 7ff3 fa8e 04c0 cc3a 7880 a0a1 e63f
000005d0: 2bab cf04 7a67 09c0 5c36 8bda 5bbb 08c0
000005e0: dbb4 7d29 2548 f93f 211a 19cc 1d70 e0bf
000005f0: 34d9 c13f 13fa f6bf d59b ffd2 48a2 05c0
00000600: eb7f 44cc 571c 1140 41d1 b725 df5c c73f
00000610: 113f fe99 2da2 0a40 99fd 421b 31ce e3bf
00000620: a7c7 ea87 3a85 0bc0 bd61 2340 c2ea e0bf
00000630: 0c5a e62e 3834 ec3f 62b2 0610 08ac 06c0
-0.29758356203122643 0.6738716781071312 0.3913793722935773 2.4129273751891698 -2.8360889780738763 0.9833330558510366 -2.753977089741212 -0.9573548302871557
-2.9607014035442103 -2.414487066212931 -1.921161631620535 2.8370532105358053 -1.3825189827933415 -2.179832477378747 -1.3934996370023354 1.1938062884728973
1.8932448439817817 -1.818268974647776 -3.483277779015818 -2.367943173598715 2.0234457468651312 -0.17394666739294962 -3.748275820130942 1.0318844628002626
1.3679249530457271 -3.6452690567884485 0.06534857371048464 1.9067350594312804 2.3151686722692886 -1.8008697360979784 -2.114803656592556 -2.7736053725136043
1.326306078078867 -0.20007241051307362 2.463310873678141 -3.1129718515846556 0.6337809700590992 0.6947634885845623 -2.967194480046751 0.5681835482006763
-2.718797543446928 1.2378043944330006 -0.9604802735397308 1.24285922179815 0.8152920377323858 -2.1332369503783886 2.956598538716176 -0.3577366110430503
-3.2770336108602867 3.063023550084821 -2.917330389614464 0.6014011997818568 -2.3034501801670495 0.6020412064500141 -0.5010639453715632 0.6388300840863446
-2.5352870381897836 -2.75392428746101 -2.5547789897332915 1.0258783690682314 -1.0581076930388003 0.5356888503059235 -3.455879739249741 -1.2038418149437697
0.6826663956456396 -2.6606005001446844 0.7811886482336873 0.6753874673904129 0.17482723967984942 2.436556258190488 2.218467143219557 1.8053738405100253
-0.6518121953417791 -3.278567360954792 -1.1718578154374009 0.7343372561264861 -2.155751059935407 0.8529108811136838 2.0190247216245303 -3.395176199212158
2.385484661338152 -1.8269096943462357 -2.2599692495630532 -3.3226604022134376 -3.243793069260237 2.1065082953392076 -0.21937439538330183 -3.225302526189929
1.077038658744712 -0.01839187141518773 -1.5173006932108852 -0.8804198878250703 -3.672763207459673 0.95357463729618 0.603115919145806 0.8609568143767393
-1.409776361946579 1.547575182473485 0.2660394045933953 1.6114013018035909 -0.49207429025627675 -0.26777141251410264 5.270274661625781 -2.6463238850473068
-0.9024101663050264 -0.24003904233730974 0.5607770231713627 -1.5658936200706706 2.6512770662809153 -0.10204447354873705 0.3793036053355963 -2.2985204688004197
0.5087164389162662 -1.7534993742925733 -2.1665775342133733 -5.456940140614486 2.7471752769451854 -4.009231450723518 3.0940213001494596 -0.03938416387510043
-0.3306040762396784 -3.3122268366935637 0.8333374220967407 -0.6307910247346307 3.0605964234664373 -0.8648902949636551 -2.378552412000276 2.953249217761344
-2.9160803524570262 -2.7477436182397983 0.9129899054625356 -1.946564020824876 -3.3585530694558097 0.5644351102693038 1.180898993476774 -0.5404907657455751
0.9123690318257158 -2.509676131224395 -2.8289613163907537 -0.11702065176308583 2.1263642171521075 -0.08865479453219027 -1.2463424578055862 0.6437512611977189
-0.5936879237203556 -3.296253645482319 -0.6710587788479708 -3.889531629028624 -3.291595194831681 -2.2596663479028 2.577229292719193 2.6434143487176622
1.5507122232979202 -1.5319765280829356 -2.1822752637814005 -1.7328705128834287 -2.1254841655855894 0.8458123881545556 0.1234555801353751 2.8742282571713336
-2.503318423327402 -1.8041062893163151 -0.4737903624811418 0.3280885456734458 -3.526224511032454 0.775368969703288 2.1651496232670824 1.5962476147693607
-1.5850600792985365 0.9029892799189818 1.9688560632747545 -3.409093390306849 0.35339805964856796 2.6308209848178667 -4.433132234956814 0.336379671248901
-1.0284003310157597 2.2612079974791195 -5.021888061317302 -2.090562780847143 -4.091012186569742 1.3193503214963818 -0.38745834164650456 1.674180517336399
-2.5698145888597996 0.7072298535511776 -3.175525701129478 -3.0914837907537684 1.5801135655158791 -0.5136860834398399 -1.4360535135761667 -2.7042404636626807
4.277678672486199 0.18252171842289935 3.3291885405268506 -0.6189199001745919 -3.440053045132078 -0.5286570790004174 0.8813744464885658 -2.833999753193255

bias_2 f8 [10, 1]
00000000: fd09 290c a7e1 fabf f0b2 109a 1d25 fcbf
00000010: 7195 238f 5152 f8bf b890 db57 37a8 fbbf
00000020: 22a7 e3cc 4509 e1bf b24d 44b0 9300 eabf
00000030: 8385 3593 1923 02c0 9a16 846f 9926 f7bf
00000040: dec7 fc69 b2e3 0dc0 5168 2ec2 3d86 05c0
-1.6800909495365197 -1.7590614336178838 -1.5200973121039534 -1.728568404382754 -0.532381916212419 -0.8125704233847755 -2.2671386242588496 -1.4469236713497708
-3.736180141474491 -2.690547482529873
