cnn_model/model_weights.pth (torch, 409152 bytes, 4 tensors)

fc1.weight f4 [128, 784]
0	0x3c14a2ce	0.009072019
1	0xbc8dfcc3	-0.01733244
2	0xbc2f24d7	-0.010689936
3	0xbcb3421e	-0.021882113
4	0xbca665c3	-0.020312196
5	0x3c3bb45c	0.011456575
6	0x3c8e8b37	0.017400367
7	0xbc1c7317	-0.009548924
8	0xbcec4938	-0.028843507
9	0xbcdbdd08	-0.026838794
10	0xbcb6d097	-0.02231626
11	0xbc79df21	-0.015250952
12	0x3c154265	0.009110068
13	0x3c5330a6	0.012890017
14	0xbc5eee45	-0.013606613
15	0x3ce213a5	0.027597258
16	0xbcca52b1	-0.024697633
17	0x3b0b43ee	0.0021250206
18	0x3c69a0d8	0.01425954
19	0x3cd989da	0.02655499
20	0xbcc8cad5	-0.02451078
21	0xbd0d70ba	-0.034531333
22	0xbc537ed3	-0.012908655
23	0xbc86fec0	-0.016478896
24	0x3c08ed2a	0.008357326
25	0x3c504d01	0.012713672
26	0x3cca3f21	0.024688305
27	0xbcc3be21	-0.023894371
28	0xbce04f3c	-0.027381532
29	0xbc4ce7dc	-0.012506451
30	0x3afa6a01	0.0019105078
31	0x3bf73e9c	0.0075453054
32	0xbb9ae5b5	-0.0047270902
33	0xbca7c54f	-0.020479826
34	0x3ca9ba9c	0.020718865
35	0x3c6e0d53	0.014529544
36	0x3cb11a70	0.021619052
37	0x3cfbaf69	0.03072329
38	0x3bc74dec	0.006082287
39	0xbce2c031	-0.027679535
40	0xbba3fa30	-0.00500419
41	0x3cbdd358	0.023172066
42	0xbc706e42	-0.014674725
43	0xbc43616b	-0.011925082
44	0xbcf0f581	-0.02941394
45	0xbb6d005e	-0.003616355
46	0x3c3633b5	0.011120726
47	0x3c8e898d	0.017399574
48	0x3c694459	0.014237487
49	0x3b9019de	0.004397615
50	0xbcdf3588	-0.027247205
51	0x3c92d16c	0.017922126
52	0xbc8354ee	-0.016031709
53	0xbcfd4681	-0.030917408
54	0x3d059e7d	0.03262185
55	0xbc1ccab3	-0.009569812
56	0xbd066d52	-0.0328191
57	0x3bcd7f53	0.0062712817
58	0xbcd71392	-0.026254449
59	0x3b76884e	0.0037617865
60	0x3c5633ee	0.013073904
61	0x3cc9ed16	0.024649184
62	0x3cd6176d	0.026134217
63	0x3bdd5104	0.0067540426
64	0x3cf3c37f	0.029756306
65	0xbd127298	-0.035753816
66	0x3c8e0c6c	0.017339908
67	0x3ba96540	0.0051695406
68	0xbc861802	-0.01636887
69	0x3cd50a77	0.026005967
70	0x3d03b696	0.03215655
71	0xbc55d140	-0.013050377
72	0x3d0febca	0.035136975
73	0x3d6c985e	0.057762496
74	0x3c8fafa3	0.017539805
75	0xbb8f73cc	-0.0043778177
76	0x3cf69c78	0.030103907
77	0x3b3899ba	0.00281678
78	0xbc5d78c1	-0.0135175595
79	0x3cca66e1	0.02470726
80	0x3c656a5e	0.014002411
81	0x3be48e24	0.0069749523
82	0x3c127777	0.008939615
83	0x3c90fee3	0.017699664
84	0x3c7c0725	0.015382563
85	0xbbb7f08a	-0.0056133913
86	0x3cb64539	0.022249805
87	0xbce92a88	-0.028462663
88	0xbca6e9f4	-0.02037523
89	0xbca975e1	-0.020686092
90	0xbbd80905	-0.006592872
91	0xbccecede	-0.025245126
92	0xbcb06346	-0.021531712
93	0xbd1ebb47	-0.03875282
94	0xbc8e6453	-0.017381823
95	0xbb76d64a	-0.0037664347
96	0x3a3b316d	0.0007140849
97	0x3c7c72da	0.015408242
98	0x3d1bc2eb	0.038027685
99	0x3d6689aa	0.05628363
100	0x3baf68f5	0.005353088
101	0xbc0c3de1	-0.008559675
102	0xba36fa91	-0.00069800863
103	0x3ca62e6d	0.02028581
104	0x3c4061d5	0.011742075
105	0x3d536ea5	0.05161919
106	0xbcbb0a23	-0.022831982
107	0x3cb3f9a5	0.021969626
108	0x3d0f8c5e	0.035045974
109	0xbcb6a136	-0.022293668
110	0xbbecd348	-0.007227335
111	0x3c698cd8	0.014254771
112	0x3ce4a418	0.027910277
113	0xbc19fbf3	-0.009398448
114	0x3caa6407	0.02079965
115	0xbbe14569	-0.0068747294
116	0xbca7b103	-0.020470148
117	0x3d02137e	0.03175687
118	0xbc54fbbe	-0.012999473
119	0xbca93075	-0.020652989
120	0x3c383abb	0.011244471
121	0xbccc0383	-0.024904018
122	0xbd37b9a0	-0.04485476
123	0xbd35bf50	-0.044371903
124	0xbd56d2c1	-0.052447084
125	0xbd2da429	-0.042392883
126	0x3c0c1b0e	0.008551372
127	0xbcc6386c	-0.024196826
128	0x3cdadbb9	0.0267161
129	0xbc15c0e0	-0.009140223
130	0xbc6c18bc	-0.014410194
131	0x3c654935	0.013994505
132	0x3c3b8d96	0.011447331
133	0x3c60ffbb	0.013732846
134	0xbb16b623	-0.0022996746
135	0x3d19198f	0.03737789
136	0x3c2dc52d	0.010606092
137	0xbbdd5bb5	-0.006755317
138	0xbc9ec083	-0.019378906
139	0xbc1d03c1	-0.0095834145
140	0x3c24eb13	0.010065812
141	0x3c3d197c	0.0115417205
142	0x3cb7dd6e	0.022444453
143	0xbaa4deac	-0.0012578568
144	0x3cb1b7c7	0.021694077
145	0xbce5b7ea	-0.028041799
146	0xbd286943	-0.04111601
147	0xbc79e000	-0.01525116
148	0xbc1c51fc	-0.009541031
149	0xbd314ec2	-0.043288
150	0xbd84f6ab	-0.06492361
151	0xbd972f0c	-0.0738202
152	0xbbed4455	-0.007240812
153	0x3d6cef1f	0.05784523
154	0x3da4a3bb	0.080390416
155	0x3d2b8383	0.041873466
156	0xbcc4f718	-0.024043605
157	0xbdb001e1	-0.085941084
158	0xbd810caf	-0.06301247
159	0x3d0a5551	0.03377277
160	0x3ab1d485	0.0013567364
161	0xbc2f3691	-0.010694162
162	0xbcab9281	-0.020943882
163	0x3d67bf98	0.056579202
164	0x3b96dab4	0.004603708
165	0xbc609c1c	-0.013709094
166	0xbc87283b	-0.016498676
167	0x38a5aea0	7.9003396e-05
168	0xbcecd571	-0.02891037
169	0xbcc6680e	-0.024219539
170	0x3cd38ca5	0.0258239
171	0x3bdc42ae	0.006721816
172	0x3cfbcc7d	0.030737156
173	0x3c4b9701	0.012426139
174	0x3a8cf5ee	0.0010754445
175	0xbb3996bf	-0.0028318611
176	0xbd87edb0	-0.06637132
177	0xbda6e971	-0.08149994
178	0xbdaad954	-0.08342233
179	0xbde1a4f2	-0.11017789
180	0xbb3e36eb	-0.0029024433
181	0x3dab8730	0.08375394
182	0x3dbf2661	0.09333492
183	0x3d27aa1b	0.04093371
184	0xbd8973da	-0.0671155
185	0xbd8acc42	-0.0677724
186	0xbdccf5c4	-0.100078136
187	0xbd756c1f	-0.059917565
188	0xbd2e4a6c	-0.042551443
189	0x3b9f7655	0.004866401
190	0x3c9d7c67	0.019224359
191	0x3d9a9862	0.07548596
192	0xbbdf1d13	-0.006808886
193	0xbd855ecb	-0.06512221
194	0x3c8b67d1	0.017017277
195	0xbc99cafd	-0.01877355
196	0xbac4d54a	-0.0015017178
197	0x3aeca225	0.0018053694
198	0x3cce4983	0.025181537
199	0xbc872148	-0.016495362
200	0x3d1b410c	0.03790383
201	0xba4cc2d7	-0.0007811016
202	0xbceaf59a	-0.028681565
203	0xbd286ed8	-0.041121334
204	0xbd5e46a0	-0.054266572
205	0xbd905e20	-0.07049203
206	0xbda700a2	-0.081544176
207	0xbc77a0f1	-0.015114055
208	0xbd6a2888	-0.05716756
209	0xbc80dea1	-0.015731158
210	0x3def50d1	0.116853364
211	0xbdaba603	-0.083812736
212	0xbda8c147	-0.0823999
213	0xbdee7525	-0.11643437
214	0xbe1e1750	-0.1543858
215	0xbd83f3aa	-0.064429596
216	0xbcae9de7	-0.021315528
217	0xbd892163	-0.06695821
218	0x3c434a1d	0.011919525
219	0x3d20515e	0.039140098
220	0x3d7aa4af	0.06119221
221	0xbd1c1631	-0.0381071
222	0x3d189867	0.037254717
223	0xbccb8c2c	-0.024847113
224	0xbcb1215a	-0.021622349
225	0xbcbf3187	-0.023339046
226	0xbd0b0cf8	-0.033947915
227	0x3b304265	0.0026895043
228	0x3cbb8c2a	0.022893984
229	0xbcdfca5d	-0.027318174
230	0xbce512a9	-0.027963
231	0xbcc8055b	-0.024416616
232	0xbd35c334	-0.044375613
233	0xbde0a980	-0.109698296
234	0xbd9301b0	-0.07178056
235	0xbd3921d2	-0.04519827
236	0xbd3c5d7b	-0.045987587
237	0x3d8f4979	0.06996436
238	0x3d7ebd42	0.06219221
239	0x3bf3d1c6	0.0074407784
240	0xbdf6786f	-0.1203469
241	0xbdd48308	-0.10376555
242	0xbe098236	-0.13428578
243	0xbd2cc75d	-0.042182315
244	0x3d29e470	0.04147762
245	0x3c015c72	0.007895576
246	0xbbb2670c	-0.005444413
247	0x3c67d149	0.014149019
248	0x3d312715	0.043250162
249	0x3c9fd64a	0.01951136
250	0xbc6de421	-0.014519722
251	0x3cf8b9ce	0.030362036
252	0xbbbcfb81	-0.0057672863
253	0xbcfe7763	-0.031062787
254	0xbd0564d2	-0.032566853
255	0xbd173449	-0.036915097

fc1.bias f4 [128]
0	0xbcc0150c	-0.023447536
1	0x3cfa4c84	0.030554064
2	0xbc0faa63	-0.008768651
3	0xbbd4b122	-0.0064908424
4	0x3cbaa7fd	0.022785181
5	0xba34196d	-0.0006870244
6	0x3c9f1c40	0.01942265
7	0x3d125957	0.035729732
8	0x3ccb3fc2	0.024810676
9	0x3caee624	0.021349974
10	0x3c948843	0.01813138
11	0x3c918460	0.017763317
12	0x3d03b344	0.032153383
13	0x3ceec8c9	0.029148476
14	0x3c333e8b	0.010940204
15	0x3c81f4dd	0.01586383
16	0x3cceae0b	0.025229475
17	0x3d0f0426	0.034916066
18	0xbce9618c	-0.028488897
19	0xbc8e0264	-0.017335124
20	0xbc72a5b7	-0.014810017
21	0x3ca5b4f3	0.020227885
22	0xbb847c16	-0.0040431125
23	0x3c58bcaf	0.013228579
24	0xbc959b6e	-0.018262591
25	0xbd0c52c1	-0.034258608
26	0x3cbab608	0.022791877
27	0x3cedf314	0.029046573
28	0xbd0491f4	-0.032365754
29	0xbc642414	-0.013924617
30	0x3c933667	0.017970277
31	0xbc8b2714	-0.016986407
32	0x3cb8efd4	0.022575296
33	0x3bb57473	0.0055375635
34	0xbcbcdd19	-0.023054646
35	0xbd122bb3	-0.035686206
36	0xbc249986	-0.010046368
37	0xbc448a19	-0.011995816
38	0xbd026a03	-0.031839382
39	0xbbc4bea6	-0.0060041724
40	0x3c4c2842	0.01246077
41	0xbcab067a	-0.020877112
42	0x3cc04031	0.023468109
43	0x3c00e318	0.007866643
44	0xbc84919d	-0.016182715
45	0x3cb44f45	0.022010455
46	0x3c86f866	0.016475867
47	0xbca8a082	-0.020584349
48	0xbc0437f4	-0.008069981
49	0xbd03b156	-0.032151543
50	0xbcd61d2f	-0.026136963
51	0x3b7adcf0	0.0038278662
52	0x3c84f67a	0.01623081
53	0x3ca8f268	0.0206234
54	0xbcbb8208	-0.022889152
55	0xbc9507ec	-0.018192254
56	0x3b863a25	0.004096287
57	0xbc99482f	-0.018711178
58	0xbc56d00e	-0.013111128
59	0x3ceb3623	0.028712338
60	0xbcfe6e01	-0.031058313
61	0x3b4a304d	0.0030851543
62	0xbca0d773	-0.019633984
63	0xbcad8d49	-0.021185534
64	0xbc30ad85	-0.010783558
65	0xbab9f2b8	-0.0014186716
66	0xbc736d7e	-0.014857648
67	0xba0e4c84	-0.0005428272
68	0x3c6f5e42	0.014609875
69	0xbcdaa1d2	-0.02668849
70	0x3cc1d955	0.023663202
71	0x3d096452	0.03354294
72	0x3bb0adbf	0.005391806
73	0xbbfdf6ce	-0.0077503687
74	0xbc97a19b	-0.018509677
75	0x3b2a29c0	0.0025964826
76	0x3d0ff9c6	0.035150312
77	0xbcc46a32	-0.02397642
78	0x3c912925	0.017719815
79	0xba710861	-0.0009194669
80	0x3d03fe5d	0.032225
81	0xbb985916	-0.0046492917
82	0xbbc2807f	-0.005935728
83	0xbbe63e2c	-0.0070264544
84	0x3c03ac92	0.008036749
85	0x3d10456c	0.035222456
86	0x3c8a08bd	0.01684987
87	0x3bdbb310	0.0067046955
88	0xbc279071	-0.010227309
89	0x3cec6aff	0.028859613
90	0x3cfeeaac	0.03111776
91	0xbd10aee2	-0.03532303
92	0xbd0980cd	-0.0335701
93	0x3ca205d6	0.019778173
94	0xbcc72736	-0.02431069
95	0x3c9caa22	0.019124094
96	0xbc72d71b	-0.014821793
97	0xbbfc76ca	-0.0077045904
98	0x3c8e8c71	0.017400952
99	0x3b70afdd	0.0036725916
100	0xbc836d3b	-0.016043296
101	0x3cdc51ba	0.026894439
102	0x3cac413c	0.0210272
103	0xbbfd5a2a	-0.0077316957
104	0x3ca475b6	0.02007566
105	0xba4225da	-0.0007406153
106	0x3c1a26ec	0.009408694
107	0xbb79a2c0	-0.0038091391
108	0xbc7849e3	-0.015154335
109	0xbbee7194	-0.007276723
110	0xbba9f654	-0.0051868353
111	0x3ba6a56e	0.0050856387
112	0xbc9b4430	-0.018953413
113	0x3cfe5d7b	0.031050434
114	0xbcf76798	-0.030200765
115	0x3d0b6f88	0.03404191
116	0xbc425e4c	-0.011863302
117	0x3be50420	0.006989017
118	0xbc8e24cb	-0.017351529
119	0xbcdb7d3c	-0.026793115
120	0x3bbbf891	0.0057364185
121	0xbcde9a56	-0.027173202
122	0x3ccbb545	0.02486671
123	0x3c2b8161	0.010467858
124	0xbc7d4ecb	-0.01546068
125	0x3c9cb9c2	0.019131545
126	0xbcd887cb	-0.026431939
127	0xbcba834d	-0.022767687

fc2.weight f4 [10, 128]
0	0xbbd5a367	-0.006519723
1	0xbc8eed95	-0.017447272
2	0xbce15710	-0.027507335
3	0xbcb2f928	-0.021847323
4	0x3b3c8f3d	0.00287719
5	0xbc72bf98	-0.014816187
6	0xbdb6c098	-0.08923453
7	0x3dcf1dd9	0.10113115
8	0x3d1a8e7b	0.037733536
9	0xbd0021d0	-0.031282246
10	0xbe2f91ea	-0.17145506
11	0xbd9384c4	-0.072030574
12	0x3d4b888c	0.049690768
13	0xbc2abdb8	-0.010421209
14	0xba25fbdf	-0.0006331782
15	0x3ccce012	0.025009189
16	0xbd0af42e	-0.033924274
17	0xbd471732	-0.048606105
18	0xbd84fedb	-0.06493922
19	0xbc018e27	-0.007907427
20	0x3c5e888e	0.013582362
21	0xbd681694	-0.056662157
22	0x3d591325	0.052996773
23	0xbd95e2ab	-0.07318624
24	0x3dad7a26	0.084705636
25	0x3df74491	0.12073625
26	0xba2394cb	-0.00062401284
27	0xbc9e4933	-0.019322013
28	0xbdb2d041	-0.087311275
29	0xbc9ca568	-0.01912184
30	0xbd20200c	-0.039093062
31	0xbd039e24	-0.032133237
32	0x3d4a3975	0.0493712
33	0x3d76f56e	0.060292654
34	0x3dcf3ef8	0.10119432
35	0x3d39bcc1	0.045346025
36	0x3d878480	0.06617069
37	0xbd098c08	-0.03358081
38	0xbc50a90a	-0.012735615
39	0xbcb6ce6a	-0.022315223
40	0xbd6efbfa	-0.058345772
41	0xbb043379	-0.0020172282
42	0x3b30219c	0.0026875501
43	0xbe1b26c8	-0.15151513
44	0xbb39d5e1	-0.0028356242
45	0xbd97fd69	-0.07421381
46	0x3be5968e	0.007006473
47	0xbb087874	-0.0020823749
48	0xbd746aa0	-0.059671998
49	0x3d940838	0.0722813
50	0x3d1367a1	0.0359875
51	0x3d2eb712	0.04265506
52	0x3dadc7d0	0.08485377
53	0xbc5667e7	-0.013086296
54	0xbde0321d	-0.10947058
55	0x3d04045e	0.032230727
56	0x3c6e1442	0.014531197
57	0x3d1a7ed7	0.03771862
58	0xbd726378	-0.059176892
59	0x3dd1613c	0.10223624
60	0xbdcc6a0c	-0.09981164
61	0xbdf51e1b	-0.11968633
62	0x3d04fd5f	0.032468196
63	0xbd00ea05	-0.03147318
64	0x3cb0ac4d	0.021566534
65	0xbda3721c	-0.07980749
66	0xbd8610e7	-0.065461926
67	0xbd85dd73	-0.06536379
68	0x3b409c7d	0.002939015
69	0xbc8c5688	-0.017131105
70	0x3b312725	0.0027031389
71	0xbd48ee2b	-0.04905526
72	0x3bad9d07	0.00529826
73	0xbcb9cdf3	-0.022681212
74	0x3d59a403	0.05313493
75	0xbd0762e8	-0.03305331
76	0xbd8c0032	-0.06835975
77	0x3ca3bd07	0.019987596
78	0x3cd22778	0.025653586
79	0xbc9c114d	-0.019051218
80	0xbbb37376	-0.0054764105
81	0x3da34684	0.07972434
82	0xbd97532b	-0.0738891
83	0x3da08e3e	0.078396305
84	0x3e144c58	0.14482248
85	0x3d0deedf	0.034651633
86	0xbd9c5768	-0.07633859
87	0xbd632e56	-0.05546411
88	0x3d9271da	0.07150622
89	0xbd82e58e	-0.0639144
90	0xbd8ccd16	-0.068750545
91	0xbc36bb27	-0.011153019
92	0xbc563332	-0.013073729
93	0xbd5f1bb7	-0.05446979
94	0xbb4e7103	-0.0031500466
95	0xbe06faaf	-0.13181566
96	0xbd282384	-0.041049495
97	0xbd96775c	-0.07346985
98	0xbc17f919	-0.009275698
99	0x3cb6cd9b	0.022314837
100	0xbda419c1	-0.08012725
101	0xbd1b77a0	-0.03795588
102	0x3c07cdfc	0.008288857
103	0x3bdc8a72	0.006730371
104	0x3ce8d592	0.02842215
105	0x3d797afe	0.06090831
106	0xbd3021ff	-0.04300117
107	0xbd923d64	-0.071406156
108	0xbda3087a	-0.07960601
109	0xbc128a54	-0.008944113
110	0xbd7e3e4a	-0.062071122
111	0x3dbd6b3a	0.092489675
112	0xbcee3be5	-0.029081294
113	0x3c4f7722	0.012662681
114	0xbdad75f9	-0.08469767
115	0xbcc341ea	-0.023835141
116	0x3dbcdede	0.09222196
117	0x3e011049	0.12603869
118	0x3d79311a	0.060837843
119	0xbd06e4e5	-0.032933135
120	0xb9a815dc	-0.00032059744
121	0x3cd0cb47	0.025487555
122	0x3d8f600f	0.070007436
123	0xbd90c225	-0.0706828
124	0x3d8c1ac7	0.06841045
125	0xbccb7a40	-0.024838567
126	0x3bd6d812	0.0065565193
127	0xbbc5ba31	-0.0060341586
128	0x3c6f0e55	0.014590819
129	0xbd5cedd7	-0.05393776
130	0x3dc914b8	0.09818405
131	0x3d58514a	0.0528119
132	0xbc048b4a	-0.00808985
133	0x3c86506d	0.016395772
134	0xbd09fdb0	-0.0336892
135	0xbd63eff2	-0.05564875
136	0xbc3da01c	-0.011573818
137	0x3babe2dd	0.00524555
138	0x3cb063d0	0.02153197
139	0x3d29243f	0.041294333
140	0x3c9b168f	0.018931655
141	0xbc874c9b	-0.01651602
142	0x3db81a8a	0.08989437
143	0xbd38cbb1	-0.04511613
144	0xbd84683e	-0.06465195
145	0xbbfa00ca	-0.0076294886
146	0x3cd7e20d	0.026352907
147	0xbcb8afda	-0.02254479
148	0x3ca58132	0.020203207
149	0xbd9a73f0	-0.075416446
150	0xbd837d18	-0.06420344
151	0xbd88dc25	-0.06682614
152	0xbda7415f	-0.081667654
153	0xbc10a4ad	-0.008828324
154	0x3d919681	0.071087845
155	0x3d3fc644	0.04681994
156	0x3de8c715	0.11366097
157	0x3d036cfa	0.03208635
158	0x3d777927	0.060418274
159	0xbd36722b	-0.044542473
160	0xbd3b9857	-0.04579958
161	0xbd3e2875	-0.0464253
162	0x3bdd2580	0.006748855
163	0xbda53080	-0.08065891
164	0xbdacb545	-0.08433012
165	0xbc5056fa	-0.012716049
166	0x3e0fc7d6	0.14041075
167	0x3d0749f7	0.033029523
168	0xbd482304	-0.04886152
169	0x3d67b03a	0.056564547
170	0x3d979dc8	0.07403141
171	0xbc940a31	-0.018071266
172	0x3cfe2f68	0.031028464
173	0x3da4bfab	0.0804437
174	0xbd979e16	-0.074031994
175	0xbd8b3a93	-0.067982815
176	0x3d417c52	0.0472377
177	0xbd81b191	-0.06332696
178	0xbdcbb7f7	-0.09947198
179	0x3dafa8d6	0.08577125
180	0x3d6ecf95	0.058303434
181	0xbcf7b429	-0.030237274
182	0x3d80b268	0.06284028
183	0xbd9ded79	-0.0771131
184	0xbd459ae6	-0.048243426
185	0xbd536d77	-0.051618066
186	0xbd8e39d6	-0.06944625
187	0xbd0e3b42	-0.03472448
188	0xbc350bde	-0.011050193
189	0xbdaf8e32	-0.085720435
190	0xbc8c8e93	-0.017157828
191	0xbd56fba4	-0.052486077
192	0x3d3525e8	0.044225603
193	0x3d7a95d9	0.061178062
194	0x3ce51681	0.027964832
195	0xb9c28e7c	-0.00037108723
196	0x3e12a0c9	0.14319147
197	0xbd8e0d58	-0.06936139
198	0x3dccfcff	0.10009193
199	0x3a61349b	0.00085909077
200	0xbc4048b1	-0.011736081
201	0xbd6d807c	-0.05798386
202	0x3d0a0feb	0.033706587
203	0x3cc335da	0.02382939
204	0x3d866331	0.06561888
205	0x3d6edebc	0.058317885
206	0x3e05a0c4	0.13049608
207	0x3d55abe3	0.052165877
208	0x3d388874	0.045052007
209	0xbd4d8e85	-0.050184745
210	0xbb9cd90f	-0.0047866176
211	0x3cb43992	0.022000108
212	0xbda6e4ef	-0.08149134
213	0xbd3a8760	-0.04553926
214	0xbd5fdb5d	-0.05465256
215	0xbd71be1c	-0.059019193
216	0xbdbdde00	-0.09270859
217	0xbbe66824	-0.0070314575
218	0xbb5ddba2	-0.0033852835
219	0xbdd0dc2d	-0.10198245
220	0xbc2a0df1	-0.0103793
221	0xbd1be34d	-0.038058568
222	0x3e0e772c	0.13912648
223	0xbc7caceb	-0.015422086
224	0xbc291cd3	-0.010321814
225	0xbd3b49fc	-0.045724854
226	0x3d5b61dd	0.053560127
227	0xbc41e8f9	-0.01183533
228	0xbcc2c5c6	-0.023775946
229	0xbc91d993	-0.017803943
230	0x3bc31740	0.0059536994
231	0xbd6b783a	-0.057487704
232	0xbd4cdb80	-0.05001402
233	0xbcfef9d3	-0.031124985
234	0x3da3dfbf	0.080016606
235	0xbd8f6194	-0.070010334
236	0x3cf46c65	0.029836843
237	0xbca78ed8	-0.020453855
238	0xbd823efe	-0.06359671
239	0xbc1c1ec3	-0.009528819
240	0xbdbecf10	-0.09316838
241	0x3da2cb4f	0.07948934
242	0x3d26cad7	0.040720787
243	0x3d0b1142	0.033952005
244	0xbcdd881e	-0.027042445
245	0xbc799324	-0.015232835
246	0x3d3ee213	0.04660232
247	0x3e1edc4a	0.15513721
248	0x3dc4a22e	0.09601246
249	0xbd7ddf1e	-0.06198036
250	0x3d96c7d2	0.073623314
251	0xbd7055f7	-0.058675732
252	0xbca55fe9	-0.020187335
253	0x3d9a6892	0.075394765
254	0xbd489cfb	-0.048977833
255	0xbd93e61f	-0.072216265

fc2.bias f4 [10]
0	0x3d987ec5	0.07446054
1	0xbd921a27	-0.071338944
2	0x3cd130d0	0.02553597
3	0x3cfc71f3	0.030816054
4	0xbdd3fb09	-0.103506155
5	0xbcd91323	-0.026498383
6	0x3c456692	0.01204838
7	0x3b4133f2	0.0029480425
8	0x3e8332f9	0.25624827
9	0x3d77beee	0.06048482
